time_series data prediction with gru and lstm/gru.pt (torch, 65413 bytes, 9 tensors)

gru.weight_ih_l0 f4 [192, 1]
0.06424025 -0.104121715 0.09151093 0.04494957 0.052348692 0.011341066 -0.0016768925 -0.07250262
0.10703984 -0.015702058 0.0034556559 0.05038007 0.066337034 -0.106213175 0.06541888 -0.027078861
0.041681435 0.08091352 0.083727375 0.013923792 -0.009380627 -0.013577808 -0.04505419 -0.037314758
-0.0005972822 -0.03881743 0.046798065 0.11634022 -0.08272313 -0.14344987 0.060030404 -0.11477295
0.0214383 -0.010632334 0.14672829 -0.05742883 -0.072243065 -0.014357458 -0.11390718 -0.05413958
0.03448509 0.03240419 0.17393056 0.022225488 -0.098820396 -0.06017978 0.034450877 0.16432482
0.09521306 0.1802854 0.07191067 -0.008170026 -0.04159581 -0.046126693 0.12776044 -0.037435215
-0.014814065 -0.12665753 -0.03317449 0.06876339 0.1709894 0.15967691 -0.006445318 -0.003715001
-0.09737409 -0.0026168346 -0.08193774 -0.087081194 -0.0034262366 -0.0015993078 0.04970625 -0.05071915
-0.12532546 -0.0066645225 -0.16505389 -0.16347083 -0.13119796 0.017142668 0.04569335 -0.11830167
-0.060684774 0.08153309 0.1166309 0.030356502 -0.055151913 -0.13560756 0.031476393 -0.04765877
0.00790403 -0.051227923 -0.1703979 -0.076983444 0.057225395 -0.059416667 0.03202286 0.09163445
0.12898953 -0.0045578764 -0.11384927 0.035249256 0.15788908 -0.07669421 0.013284545 -0.064205706
0.16746098 -0.030827766 -0.08450193 0.00578055 0.17315836 -0.1658231 -0.09483078 -0.055249598
0.004194294 0.064333044 -0.03995565 -0.11520416 0.09782469 -0.011552837 0.035086833 -0.11354005
-0.14543425 0.0007093934 0.11175717 -0.0554397 -0.02160351 0.036595073 0.20012179 -0.015062591
0.12163496 -0.1745918 0.05875179 0.07686961 0.10450146 0.12984209 -0.112295926 -0.06862012
0.11397149 0.14772435 -0.13229154 0.16608267 -0.019684449 0.023673007 0.053364232 0.06377766
-0.15032545 -0.01358969 -0.0021329774 0.15924087 -0.16778381 -0.023363085 -0.10605883 -0.16044308
-0.17477036 0.16864796 0.05679767 -0.04710639 0.0795702 -0.14386338 0.016898511 -0.099956326
-0.028539238 0.09467279 0.07445067 0.16244665 -0.08777569 -0.10234571 -0.045384515 -0.13239525
0.10131229 -0.11866605 -0.015969602 0.16339889 0.10445958 0.09535525 -0.018044455 0.16798668
-0.06365034 -0.087035045 -0.057244733 -0.073318765 0.096136145 0.08756364 0.07667814 0.17482746
0.12420357 0.1331894 0.12212096 -0.048561916 -0.06650662 0.013424849 -0.111883886 -0.07401498
00000000: 6490 833d c43d d5bd 156a bb3d 0a1d 383d
00000010: 956b 563d e1cf 393c 2dcb dbba 417c 94bd
00000020: b437 db3d 9aa1 80bc 4978 623b 555b 4e3d
00000030: b6db 873d 4b86 d9bd 55fa 853d 7dd4 ddbc
00000040: 27ba 2a3d fdb5 a53d 4279 ab3d 9e20 643c
00000050: 34b1 19bc 7475 5ebc be8a 38bd 5cd7 18bd
00000060: ee92 1cba 07ff 1ebd 54af 3f3d c843 ee3d
00000070: bf6a a9bd 86e4 12be 71e2 753d 150e ebbd
00000080: 609f af3c 3e33 2ebc f13f 163e 7e3a 6bbd
00000090: 2cf4 93bd 8b3b 6bbc 2b48 e9bd 77c1 5dbd
000000a0: 3d40 0d3d 42ba 043d da1a 323e 3a12 b63c
000000b0: 5962 cabd 137f 76bd 5d1c 0d3d c444 283e
000000c0: 11ff c23d bc9c 383e e745 933d 93db 05bc
000000d0: 5e60 2abd 58ef 3cbd a2d3 023e ab55 19bd
000000e0: b1b6 72bc 83b2 01be f9e1 07bd d2d3 8c3d
000000f0: d817 2f3e 5882 233e 3f33 d3bb 6077 73bb
00000100: 116c c7bd 337f 2bbb f9ce a7bd a057 b2bd
00000110: b68a 60bb dd9f d1ba c898 4b3d e2be 4fbd
00000120: 5155 00be 1162 dabb e303 29be e664 27be
00000130: c258 06be c86e 8c3c f328 3b3d 2548 f2bd
00000140: 9990 78bd d2fa a63d 2edc ee3d 33ae f83c
00000150: f9e6 61bd b5dc 0abe 64ed 003d d835 43bd
00000160: e87f 013c 5fd4 51bd c97c 2ebe 7fa9 9dbd
00000170: 2d65 6a3d e45e 73bd 672a 033d d8aa bb3d
00000180: d515 043e 3d5a 95bb ce29 e9bd 8661 103d
00000190: adad 213e db11 9dbd 6ca7 593c 487e 83bd
000001a0: e47a 2b3e 838a fcbc 590f adbd c56a bd3b
000001b0: 6d50 313e 88cd 29be a436 c2bd 674d 62bd
000001c0: 4a70 893b 0bc1 833d 89a8 23bd 29f0 ebbd
000001d0: 5058 c83d 1c48 3dbc 36b7 0f3d b087 e8bd
000001e0: b7ec 14be 96f6 393a f1e0 e43d bd14 63bd
000001f0: d8f9 b0bc b7e4 153d baec 4c3e 16c9 76bc
00000200: c01b f93d 31c8 32be b8a5 703d d06d 9d3d
00000210: dd04 d63d 53f5 043e 68fb e5bd b588 8cbd
00000220: e269 e93d 0d45 173e 6f77 07be 9311 2a3e
00000230: 4841 a1bc e5ed c13c 7494 5a3d dd9d 823d
00000240: eaee 19be 4ba7 5ebc 6cc9 0bbb 0a10 233e
00000250: 85cf 2bbe f163 bfbc 5f35 d9bd 314b 24be
00000260: 00f7 32be 0db2 2c3e aca4 683d a1f2 40bd
00000270: b3f5 a23d ec50 13be bf6e 8a3c e7b5 ccbd
00000280: 1fcb e9bc cfe3 c13d 9879 983d 6a58 263e
00000290: bec3 b3bd a19a d1bd 1de5 39bd 9f92 07be
000002a0: d17c cf3d 3007 f3bd afd2 82bc 0a52 273e
000002b0: e7ee d53d 9d49 c33d f7d1 93bc b304 2c3e
000002c0: 1c5b 82bd 6e3f b2bd 7479 6abd 2628 96bd
000002d0: 07e3 c43d 9154 b33d 6e09 9d3d f805 333e
000002e0: 715e fe3d cd62 083e 8e1a fa3d dce8 46bd
000002f0: 9f34 88bd e6f3 5b3c 6123 e5bd 2a95 97bd

gru.weight_hh_l0 f4 [192, 64]
0.10810104 -0.14234823 -0.051524013 -0.0088491915 0.038763497 -0.070426896 -0.10556482 -0.07154916
0.08744039 0.10105845 -0.0008805784 0.1543784 0.021884318 0.011116259 0.06421819 -0.026685191
0.035768624 0.04964173 -0.11869063 0.060356136 -0.10267031 -0.076621205 0.03442881 0.063793235
0.05801851 0.069601595 0.10898046 -0.14719217 0.032558307 0.0037593725 0.055288743 0.023406334
0.1070761 0.085829385 -0.022936692 0.03967892 -0.13312481 -0.13645054 0.016426666 -0.1439016
0.10897465 0.051715314 0.12686342 -0.017615363 0.076661944 0.1315871 -0.08712836 0.012655227
-0.08846937 -0.03146309 0.040214118 -0.10194623 0.15711328 0.07379727 0.086615324 0.09474167
-0.01012417 -0.018315146 0.009905905 0.048328683 -0.0034940976 0.09410649 -0.106354065 -0.07864446
0.050442252 0.056774408 0.077641346 0.033473108 -0.13148148 -0.04335013 -0.08550318 -0.11171486
-0.13016358 -0.006567622 0.0099073015 0.07329296 -0.044383466 0.08361563 -0.111862004 -0.0773168
-0.0869913 0.13536064 0.13687734 -0.069174655 0.09716892 -0.020903228 0.031121604 -0.10060077
0.022028318 -0.051709995 -0.11311784 -0.08924318 -0.12682182 0.014544366 -0.07891777 0.077281624
-0.115027346 -0.063529566 -0.03306579 0.006513816 0.013912011 -0.07696073 -0.08781015 0.13459477
-0.058743224 -0.13351065 -0.09536641 0.05263895 -0.1428545 -0.05431863 0.026733158 0.037240997
-0.022782527 0.04871711 -0.046105966 -0.12570098 -0.036275767 -0.13045418 0.037929777 -0.09777581
0.0026092855 0.035740536 0.013093987 -0.035004042 -0.08807343 -0.032301053 0.12176166 -0.040946826
0.102542475 -0.05214415 0.10381654 0.10933655 -0.09259307 0.048601005 0.048674148 -0.064420044
-0.009275395 0.03954681 0.11334842 0.073556714 -0.0653976 0.0566465 0.061759733 0.08813921
0.02774065 -0.08487316 0.13753468 -0.078878276 0.050448522 -0.025756873 0.0717014 0.0042942837
0.08302583 0.112893276 -0.13266402 0.044779304 -0.06078038 0.034908086 0.10689342 -0.029035551
-0.05737479 0.021329135 0.001076443 -0.06537844 0.022287996 -0.08374363 0.049757157 -0.12540518
0.059660994 0.027618887 -0.01711016 0.014467859 0.08530843 -0.13047236 -0.03883711 0.096692964
0.052542605 -0.10295557 0.027191818 -0.015605287 -0.12109844 0.12228584 0.006744257 0.018566761
0.09610222 -0.03661438 -0.0023906147 -0.11227645 0.07131862 0.06692436 -0.053625237 0.029294947
0.14382964 -0.15331252 -0.076499425 -0.035149958 -0.019094847 0.022983175 -0.026836917 -0.080703855
0.035470575 0.024893735 0.093026854 0.09255556 -0.09639171 -0.12392725 0.104492225 -0.11132403
-0.13056234 0.022427859 0.08701697 0.11406998 -0.10190055 0.1357641 -0.013434594 0.07618736
0.07678788 0.07405743 0.015750896 -0.101778276 -0.02324037 0.017393727 0.12311283 -0.08355973
-0.0060565094 0.09342693 0.03871646 0.06318992 -0.039882656 0.056658078 -0.013630512 -0.15183507
0.012074826 -0.108341776 -0.0879148 0.07100679 -0.029092265 0.05789095 0.0006647337 0.052217428
0.02783645 -0.07177629 -0.08184714 -0.10692324 0.13447271 -0.029680075 -0.048473023 0.041220292
-0.074560285 -0.03180921 0.121462315 0.067812964 0.031488914 -0.055330798 -0.10016705 -0.076457575
00000000: 1464 dd3d bcc3 11be d80a 53bd 33fc 10bc
00000010: 79c6 1e3d fa3b 90bd 5e32 d8bd 5e88 92bd
00000020: f213 b33d bcf7 ce3d 9ed6 66ba 5f15 1e3e
00000030: be46 b33c f820 363c d484 833d e79a dabc
00000040: 1f82 123d 2055 4b3d 1314 f3bd ff37 773d
00000050: d044 d2bd 94eb 9cbd 3905 0d3d 07a6 823d
00000060: d1a4 6d3d 488b 8e3d 2631 df3d 8bb9 16be
00000070: dc5b 053d ce5f 763b 7376 623d a4be bf3c
00000080: b74a db3d 51c7 af3d bbe5 bbbc 5d86 223d
00000090: df51 08be b1b9 0bbe 3791 863c f15a 13be
000000a0: 1a2e df3d 70d3 533d 7ce8 013e 184e 90bc
000000b0: f000 9d3d c5be 063e 5b70 b2bd df57 4f3c
000000c0: 6e2f b5bd 71df 00bd 8fb7 243d 2fc9 d0bd
000000d0: 4ee2 203e 0623 973d 6063 b13d ec07 c23d
000000e0: d9df 25bc a509 96bc 614c 223c 4cf4 453d
000000f0: 3bfd 64bb e7ba c03d 29d0 d9bd 5910 a1bd
00000100: 899c 4e3d 488c 683d 6d02 9f3d 191b 093d
00000110: 15a3 06be e88f 31bd 4b1c afbd c3ca e4bd
00000120: 9a49 05be 3535 d7bb 3c52 223c 9f1a 963d
00000130: 70cb 35bd ac3e ab3d e817 e5bd 4558 9ebd
00000140: 7f28 b2bd fb9b 0a3e 9329 0c3e 71ab 8dbd
00000150: 8000 c73d 3f3d abbc bcf2 fe3c c707 cebd
00000160: bb74 b43c dccd 53bd 53aa e7bd 21c5 b6bd
00000170: 94dd 01be 7e4b 6e3c a49f a1bd d445 9e3d
00000180: 7593 ebbd ca1b 82bd fe6f 07bd d971 d53b
00000190: 34ef 633c 969d 9dbd cfd5 b3bd 36d3 093e
000001a0: bc9c 70bd 04b7 08be 774f c3bd f19b 573d
000001b0: 7348 12be 367d 5ebd 7fff da3c 048a 183d
000001c0: 6ca2 babc 988b 473d 9cd9 3cbd c2b7 00be
000001d0: e695 14bd c895 05be 415c 1b3d af3e c8bd
000001e0: 8c00 2b3b ab64 123d 2988 563c 6660 0fbd
000001f0: d85f b4bd 1c4e 04bd 2d5e f93d dcb7 27bd
00000200: ca01 d23d 1b95 55bd c49d d43d d7eb df3d
00000210: 6fa1 bdbd d911 473d 8b5e 473d a8ee 83bd
00000220: d4f7 17bc d6fb 213d 3723 e83d e7a4 963d
00000230: 2def 85bd 2906 683d c6f7 7c3d 5582 b43d
00000240: 5c40 e33c fbd1 adbd e4d5 0c3e ef8a a1bd
00000250: 1ca3 4e3d 1400 d3bc 2fd8 923d 10b7 8c3b
00000260: 7209 aa3d 9734 e73d 14d9 07be 816a 373d
00000270: d9f4 78bd c8fb 0e3d f0ea da3d f7db edbc
00000280: d401 6bbd 70ba ae3c 6f17 8d3a 22e5 85bd
00000290: 5195 b63c c881 abbd 29ce 4b3d 376a 00be
000002a0: 165f 743d 0141 e23c 9b2a 8cbc 990a 6d3c
000002b0: 30b6 ae3d 8c9a 05be a913 1fbd f606 c63d
000002c0: ea36 573d 5fda d2bd 60c1 de3c 51ad 7fbc
000002d0: 7502 f8bd 0071 fa3d eefe dc3b 5219 983c
000002e0: 3ed1 c43d f6f8 15bd dcab 1cbb 32f1 e5bd
000002f0: 7f0f 923d a40f 893d 23a6 5bbd f5fb ef3c
00000300: 1448 133e f5fd 1cbe bbab 9cbd 67f9 0fbd
00000310: cc6c 9cbc 3647 bc3c 18d9 dbbc 1048 a5bd
00000320: 9849 113d f2ed cb3c dd84 be3d c58d bd3d
00000330: 0469 c5bd 92cd fdbd 0500 d63d dafd e3bd
00000340: 22b2 05be a1ba b73c f435 b23d 869d e93d
00000350: 3cb1 d0bd bf05 0b3e c51c 5cbc 1e08 9c3d
00000360: f742 9d3d 6cab 973d 0608 813c 2171 d0bd
00000370: 9762 bebc 4a7d 8e3c 9422 fc3d 5d21 abbd
00000380: af75 c6bb 9e56 bf3d 2795 1e3d b769 813d
00000390: ff5b 23bd 4d12 683d 8352 5fbc a77a 1bbe
000003a0: 7ed5 453c 4be2 ddbd ad0c b4bd 026c 913d
000003b0: e752 eebc 101f 6d3d 8641 2e3a f1e1 553d
000003c0: 4409 e43c 73ff 92bd 799f a7bd 92fa dabd
000003d0: 37b3 093e a123 f3bc a68b 46bd 9cd6 283d
000003e0: 10b3 98bd 604a 02bd 3cc1 f83d 86e1 8a3d
000003f0: 85fa 003d 8ca2 62bd 6224 cdbd ca95 9cbd

gru.bias_ih_l0 f4 [192]
0.0044848146 0.046485923 0.05713453 0.0015425764 0.006738695 0.002552373 -0.07834809 0.11277634
0.08089744 -0.098379865 0.12107456 0.10848732 0.06480428 -0.06006485 0.09057372 0.0919429
-0.0067837336 -0.09528385 -0.05865894 -0.035638027 0.037618842 0.1328992 -0.050938606 -0.046383917
-0.031649947 0.08548339 -0.01020768 0.045118615 0.08221643 -0.12285816 -0.09071657 -0.00541862
0.058953986 -0.11335206 -0.0051896973 -0.067732655 -0.008280194 0.07358992 0.060817596 0.028978448
-0.0397105 -0.052683502 0.13293365 0.051669985 -0.12663618 0.13047917 -0.06777484 -0.06011567
-0.05134174 0.103452064 -0.06887445 -0.041299332 0.1338588 0.074485704 -0.038758647 -0.0179863
-0.0056490763 0.12037193 -0.014729207 -0.0145967575 -0.07298495 0.10392601 0.1429723 0.047567762
0.022960326 -0.056462683 -0.03058961 -0.13193247 0.051435083 0.11479763 0.05395091 -0.10327163
-0.03683802 0.065700114 -0.12055322 -0.12612177 -0.032257766 0.04545757 0.025842953 -0.04568046
0.093961775 0.08375273 0.0052595395 -0.13470349 0.07184898 -0.09606156 0.00054339645 -0.10622258
0.04167474 0.09223331 -0.09585919 -0.0003654841 0.0030651218 -0.073957026 -0.12305823 0.10100147
0.005480853 0.049084518 0.074897766 -0.1256188 0.021559007 -0.001592324 0.06666001 -0.07293319
-0.06732147 -0.0940787 0.017915146 0.030431736 -0.008273636 -0.06972145 -0.039883777 -0.037539423
0.026452834 -0.03190259 -0.051097147 -0.11530192 -0.004168926 -0.044857685 -0.085544035 0.07514594
-0.043654934 0.03960699 -0.04436504 -0.014101822 -0.00016260543 -0.01946231 -0.15265122 -0.018313553
-0.12810771 -0.12959222 -0.108981356 -0.108528286 -0.04031166 0.055345647 -0.0421354 -0.006082599
-0.022112107 0.10217694 -0.11814161 0.062018845 -0.12422541 -0.007460677 0.0086919 -0.06655532
-0.10794243 -0.069917105 -0.0071566342 -0.01777232 0.05654407 0.11251058 -0.054149296 -0.1258274
-0.08679647 0.08932412 0.043322183 -0.055808708 0.121488184 -0.0703347 0.031824227 -0.047471117
0.06366425 -0.024979286 0.090838894 -0.021970602 0.0066824206 -0.06774125 -0.0681929 -0.04207067
-0.026116481 0.08863976 0.12216051 -0.0074157957 -0.09084856 0.110468164 0.015169025 -0.12666392
-0.090293385 -0.11291287 -0.06054961 0.04802952 0.107630804 -0.024115736 -0.06338768 -0.10228954
0.08374903 -0.03901268 0.057181757 0.09316102 0.11428822 0.08521556 -0.06825904 -0.06936774
00000000: 5af5 923b 0668 3e3d e605 6a3d 4630 ca3a
00000010: 45d0 dc3b b745 273b f774 a0bd 48f7 e63d
00000020: 8fad a53d 627b c9bd f0f5 f73d 9a2e de3d
00000030: 1bb8 843d 8f06 76bd b77e b93d 8f4c bc3d
00000040: 154a debb 2e24 c3bd 5b44 70bd 2ef9 11bd
00000050: 3716 1a3d ba16 083e 00a5 50bd 10fd 3dbd
00000060: 60a3 01bd ea11 af3d 1d3e 27bc 4cce 383d
00000070: 1661 a83d 0f9d fbbd 9cc9 b9bd ae8e b1bb
00000080: bc79 713d 2025 e8bd 560e aabb 6bb7 8abd
00000090: a7a9 07bc 50b6 963d df1b 793d 3664 ed3c
000000a0: 7aa7 22bd a8ca 57bd c21f 083e e8a3 533d
000000b0: eaac 01be 559c 053e 89cd 8abd d93b 76bd
000000c0: b74b 52bd adde d33d 0c0e 8dbd 7d29 29bd
000000d0: 4812 093e f68b 983d 63c1 1ebd 0158 93bc
000000e0: e31b b9bb 8f85 f63d c652 71bc 3d27 6fbc
000000f0: 2279 95bd 29d7 d43d 5567 123e 6ad6 423d
00000100: 4b17 bc3c 6a45 67bd 1097 fabc 4e19 07be
00000110: 98ad 523d 051b eb3d a1fb 5c3d 1480 d3bd
00000120: 77e3 16bd c88d 863d 9be4 f6bd 1126 01be
00000130: b820 04bd b831 3a3d 9ab4 d33c 6f1b 3bbd
00000140: 086f c03d 8d86 ab3d 3758 ac3b b6ef 09be
00000150: 8f25 933d ecbb c4bd b872 0e3a 398b d9bd
00000160: 22b3 2a3d d1e4 bc3d d351 c4bd 729e bfb9
00000170: 36e0 483b c876 97bd f405 fcbd dcd9 ce3d
00000180: ba98 b33b d90c 493d 0064 993d 37a2 00be
00000190: 849c b03c 87b5 d0ba 0b85 883d ff5d 95bd
000001a0: d7df 89bd 55ac c0bd c9c2 923c fa4b f93c
000001b0: 258e 07bc 1fca 8ebd 2c5d 23bd f0c2 19bd
000001c0: 9db3 d83c 4aac 02bd 3e4b 51bd 6a23 ecbd
000001d0: 7c9b 88bb b1bc 37bd b631 afbd 1de6 993d
000001e0: 84cf 32bd f03a 223d 1eb8 35bd 540b 67bc
000001f0: 1081 2ab9 6c6f 9fbc 9a50 1cbe 4e06 96bc
00000200: ab2e 03be d3b3 04be 9e31 dfbd 1444 debd
00000210: d71d 25bd 1eb2 623d 2b96 2cbd 8a50 c7bb
00000220: 7324 b5bc 2542 d13d 3af4 f1bd 7907 7e3d
00000230: e469 febd b278 f4bb 7968 0e3c 284e 88bd
00000240: ec10 ddbd b330 8fbd 3382 eabb 4297 91bc
00000250: c19a 673d f26b e63d a7cb 5dbd e6d8 00be
00000260: 59c2 b1bd 90ef b63d 9a72 313d ac97 64bd
00000270: ccce f83d a40b 90bd 1f5a 023d 1371 42bd
00000280: 6762 823d 5ca1 ccbc be09 ba3d b1fb b3bc
00000290: 35f8 da3b edbb 8abd b8a8 8bbd 4b52 2cbd
000002a0: 3bf2 d5bc c388 b53d 4a2f fa3d 3400 f3bb
000002b0: cf0e babd 223d e23d 8187 783c 30b4 01be
000002c0: bdeb b8bd dd3e e7bd de02 78bd 9aba 443d
000002d0: 8a6d dc3d 5d8e c5bc 66d1 81bd 2e7d d1bd
000002e0: 9d84 ab3d c3cb 1fbd 6b37 6a3d 34cb be3d
000002f0: f10f ea3d 7f85 ae3d 65cb 8bbd ac10 8ebd

gru.bias_hh_l0 f4 [192]
-0.0030247134 0.09984253 0.090686604 -0.024684152 -0.09443678 -0.06093892 0.015090445 -0.044297047
-0.009264459 0.057935923 -0.042338733 0.06366924 0.041897126 -0.1256346 -0.033733256 0.08542974
-0.11777517 0.02117365 -0.091067635 -0.08317712 -0.08169475 0.09456912 0.13134126 0.008475042
-0.11207192 0.10336619 -0.037828118 0.048697144 -0.10855795 0.058298048 -0.030115103 0.07296447
0.08543753 -0.12597838 0.012782593 -0.058908008 0.020744544 0.06783667 -0.14211744 -0.11915129
0.13164037 0.087828845 0.12018679 -0.0703367 0.043391746 0.10871093 0.04693059 0.13546622
0.021933397 0.10728441 0.055924688 0.051895116 0.1405725 -0.06493339 -0.045986373 0.08855328
0.057259858 0.08544427 0.005210727 -0.027238706 0.08811027 0.06988874 0.15480651 0.012536319
-0.17460144 0.107126206 0.099205956 0.07108914 -0.010196916 -0.046772446 -0.015156568 -0.13415071
0.028822258 -0.006815081 -0.08136595 0.03150402 0.08782832 0.023952674 0.018618077 0.09916984
0.017185122 0.059944943 0.01253328 -0.11531001 0.08610865 -0.10757013 8.983612e-05 0.04918236
0.06907294 -0.11750023 -0.08919675 -0.14113803 0.024030466 -0.01656818 -0.048256904 -0.09686655
-0.08017956 0.0963544 -0.019968653 0.0608798 -0.00864998 -0.113782614 -0.037273288 -0.17689459
0.048590988 -0.051137473 0.07844633 -0.04320441 0.011754354 0.0373003 0.006348352 -0.16476607
-0.08355932 -0.09203305 -0.10899918 0.020606872 -0.14665551 -0.13684462 -0.038351264 0.06520175
-0.05747363 -0.09353411 0.10207704 -0.03786045 0.031714797 -0.114001386 0.055809207 -0.021641867
-0.06999633 0.1153706 0.073148794 -0.08245002 0.10039524 0.06666627 -0.008028014 0.050173435
0.06562599 0.02527986 0.06651389 -0.08825959 -0.087970905 0.08264365 -0.09061464 -0.017479138
0.10537259 -0.03589644 -0.10082528 0.018718027 -0.08036665 0.0071434346 0.012127554 0.023751209
0.071007624 0.091332234 0.10340947 0.090642266 -0.11069279 -0.07858589 0.07072537 0.060907036
0.08895932 0.0585455 -0.047576744 0.06384555 -0.028713312 -0.1237888 -0.0899774 -0.0394532
-0.09661088 0.07534286 0.10763411 0.12441754 0.052490305 0.03294972 -0.0942482 -0.029143663
-0.07891802 -0.102171026 0.08434947 0.10395346 -0.03875773 0.046439737 0.11528873 0.013677445
0.033722077 -0.060003642 -0.085319996 0.028732967 0.1197159 0.098442174 0.123144105 0.078081004
00000000: 453a 46bb 3e7a cc3d e6b9 b93d 6b36 cabc
00000010: 1268 c1bd 179b 79bd ea3d 773c d270 35bd
00000020: f5c9 17bc 384e 6d3d 616b 2dbd 0565 823d
00000030: 529c 2b3d 5ba6 00be e22b 0abd caf5 ae3d
00000040: 1c34 f1bd 5d74 ad3c ab81 babd c458 aabd
00000050: 944f a7bd 74ad c13d 537e 063e e7da 0a3c
00000060: f685 e5bd a7b1 d33d a8f1 1abd a876 473d
00000070: a153 debd efc9 6e3d f3b3 f6bc 656e 953d
00000080: dff9 ae3d 7a00 01be 156e 513c 8649 71bd
00000090: 76f0 a93c f4ed 8a3d 3c87 11be 9705 f4bd
000000a0: bccc 063e 9cdf b33d 7e24 f63d b00c 90bd
000000b0: 8bbb 313d d6a3 de3d 4a3a 403d a8b7 0a3e
000000c0: abad b33c eeb7 db3d 4911 653d f98f 543d
000000d0: 3df2 0f3e ccfb 84bd 355c 3cbd 6c5b b53d
000000e0: 5089 6a3d 68fd ae3d bfbe aa3b b523 dfbc
000000f0: 2873 b43d d421 8f3d 9985 1e3e 2265 4d3c
00000100: b8ca 32be fc64 db3d 7e2c cb3d 2f97 913d
00000110: f710 27bc 7794 3fbd 4153 78bc ce5e 09be
00000120: a81c ec3c 0b51 dfbb 31a3 a6bd 5c0a 013d
00000130: 56df b33d 6638 c43c f084 983c 8f19 cb3d
00000140: d0c7 8c3c d488 753d 6358 4d3c a827 ecbd
00000150: bb59 b03d ba4d dcbd 6666 bc38 7173 493d
00000160: 1d76 8d3d f6a3 f0bd c9ac b6bd 7d86 10be
00000170: 8adb c43c feb9 87bc 08a9 45bd f861 c6bd
00000180: 2e35 a4bd 7555 c53d 4d95 a3bc 195d 793d
00000190: a5b8 0dbc dc06 e9bd e0ab 18bd db23 35be
000001a0: 5807 473d 8775 51bd 78a8 a03d 1bf7 30bd
000001b0: 5695 403c 33c8 183d d605 d03b 70b8 28be
000001c0: 2621 abbd d37b bcbd f63a dfbd becf a83c
000001d0: dd2c 16be ff20 0cbe 3716 1dbd 7f88 853d
000001e0: 7869 6bbd d08e bfbd c40d d13d 8f13 1bbd
000001f0: 60e7 013d 8f79 e9bd 3298 643d 494a b1bc
00000200: 3c5a 8fbd 6c47 ec3d 09cf 953d 8edb a8bd
00000210: 059c cd3d 5388 883d ee87 03bc a982 4d3d
00000220: eb66 863d b517 cf3c 6f38 883d 72c1 b4bd
00000230: 172a b4bd 1341 a93d 2b94 b9bd 6930 8fbc
00000240: 96cd d73d 2508 13bd 7c7d cebd 8c56 993c
00000250: 4597 a4bd 7913 ea3b a6b2 463c e591 c23c
00000260: 726c 913d 650c bb3d 58c8 d33d a7a2 b93d
00000270: e7b2 e2bd a4f1 a0bd 76d8 903d a879 793d
00000280: 4e30 b63d 68cd 6f3d d5df 42bd 75c1 823d
00000290: 2e38 ebbc fb84 fdbd 1246 b8bd ae99 21bd
000002a0: eddb c5bd 5b4d 9a3d 466f dc3d a0ce fe3d
000002b0: 1300 573d 49f6 063d 3305 c1bd b1be eebc
000002c0: c59f a1bd 0b3f d1bd 6abf ac3d 8de5 d43d
000002d0: 6dc0 1ebd 9837 3e3d 7f1c ec3d 5d17 603c
000002e0: 2920 0a3d 61c6 75bd 40bc aebd 6661 eb3c
000002f0: 9c2d f53d 0d9c c93d fa32 fc3d efe8 9f3d

mlp.0.weight f4 [32, 64]
-0.044167712 -0.12655528 -0.09269028 0.06625898 0.14969659 0.09333775 -0.07434702 -0.11916513
0.011886483 0.13262697 0.084558755 -0.06688687 -0.07351073 0.11401019 -0.06190446 -0.02817015
0.033098005 -0.11986319 -0.06961337 -0.012663893 0.088474676 0.003515121 -0.06466873 -0.10456054
0.05945375 0.007873349 0.14182562 -0.12381612 -0.020038355 0.0070799035 -0.031019703 -0.15960868
-0.071338356 0.06510438 -0.085413456 0.16081864 -0.03313733 0.08482249 0.023380015 0.06608471
-0.037980154 -0.09635416 0.10131865 0.08500401 -0.025950318 0.08896826 -0.016878368 -0.071279004
-0.061958667 0.00078770757 -0.03651295 0.08624774 0.115749545 0.04084741 0.01483472 0.047933552
-0.037930887 0.15326159 0.010992035 -0.08081751 0.07435526 0.13282849 -0.011181343 -0.063824214
0.013411366 0.12592186 0.07357866 -0.029837323 -0.008042658 -0.088832766 0.14163497 -0.052112725
0.102416456 -0.067263395 -0.03930236 -0.12794226 0.052818112 -0.08988992 -0.120100334 -0.10632928
0.13151754 -0.04331899 -0.023525206 0.085660346 -0.007944017 0.020085633 0.0045945686 -0.0024328697
-0.059139404 -0.1073817 -0.11742572 -0.0058109146 -0.06342833 -0.09789732 -0.060011595 0.059560344
-0.13231608 0.019636938 -0.013661567 -0.02194365 0.13684885 0.10661185 -0.0072796205 -0.08229098
-0.04505195 -0.08416398 -0.053190093 -0.03801047 -0.033791907 0.037251 -0.11242279 -0.024889275
-0.05219251 0.122912705 0.076234914 0.07249044 -0.052755557 -0.09016022 -0.000313476 -0.10719774
-0.040033597 -0.0038529972 -0.08222682 0.08421353 -0.061214503 -0.10424875 0.04550924 -0.09652554
-0.010688247 -0.13085692 -0.096564695 0.091751754 0.034720425 -0.007161671 0.03376703 0.0113638025
-0.029611696 0.03638771 -0.12754713 -0.04116894 0.05592526 -0.04985966 0.059173703 -0.003829713
-0.14177561 -0.10046188 -0.0996252 0.1589049 -0.14726713 0.08250333 0.015298989 -0.11326944
-0.1489444 0.06950861 0.023166057 -0.10074762 0.14776771 0.02348201 -0.0069275503 -0.03408593
0.034202624 -0.034824252 0.11193023 0.11355424 0.04802972 0.084952705 -0.01644558 0.007371796
0.0028355077 0.058800474 0.09788401 0.09686613 0.026282907 -0.045806598 -0.14085008 0.1356245
0.027631894 -0.028757649 -0.08688398 -0.017916383 0.0059443153 -0.060467526 0.113469034 0.15354088
-0.017223328 -0.06619208 0.10242948 0.037025854 -0.010374557 -0.03626037 0.07316889 0.054237846
0.09463882 0.07174874 0.061861932 0.08061927 0.10515225 -0.13000038 0.00033606662 -0.051127974
0.030348398 0.026546175 0.022349479 -0.014621965 0.042160958 -0.10027163 0.09540454 0.10331738
-0.10053816 0.090035 -0.03166584 -0.046430655 -0.029015077 -0.09078972 0.053676136 -0.0589859
-0.023824899 0.08428778 -0.012467383 -0.11086243 0.02035472 -0.037213046 -0.06255775 0.065365106
0.08283442 -0.020495737 0.0005293427 -0.055278372 0.12716347 0.10936785 -0.09096232 -0.034734182
-0.12047 -0.11713143 -0.11434752 0.023197476 -0.099324 -0.028792284 -0.106402315 -0.06917628
-0.069986485 0.03624033 0.040387858 -0.00954986 0.044865057 -0.12067493 0.103779614 -0.09146918
-0.046116784 0.02421092 -0.021347787 -0.06583825 -0.096412376 0.09279915 0.10198506 0.008793846
00000000: 34e9 34bd b597 01be 67d4 bdbd cab2 873d
00000010: 104a 193e dd27 bf3d 4043 98bd d90c f4bd
00000020: 86bf 423c 5dcf 073e 242d ad3d fcfb 88bd
00000030: cb8c 96bd 2d7e e93d 888f 7dbd 16c5 e6bc
00000040: c691 073d d57a f5bd 7491 8ebd 387c 4fbc
00000050: 3632 b53d f25d 663b 0a71 84bd d623 d6bd
00000060: c685 733d 38ff 003c bc3a 113e 4e93 fdbd
00000070: 7a27 a4bc 89fe e73b 081d febc 7570 23be
00000080: d819 92bd 7255 853d 40ed aebd a4ad 243e
00000090: 02bb 07bd 6ab7 ad3d 7287 bf3c 6c57 873d
000000a0: 1491 1bbd 5455 c5bd 2780 cf3d 9516 ae3d
000000b0: c395 d4bc fe34 b63d 8144 8abc bafa 91bd
000000c0: 5fc8 7dbd 297e 4e3a 9a8e 15bd a8a2 b03d
000000d0: 190e ed3d 9d4f 273d 530d 733c f955 443d
000000e0: 6b5d 1bbd 9bf0 1c3e f017 343c a783 a5bd
000000f0: 9247 983d 3104 083e f431 37bc 45b6 82bd
00000100: 59bb 5b3c a9f1 003e 69b0 963d 676d f4bc
00000110: 5ac5 03bc f4ed b5bd c208 113e 2774 55bd
00000120: b8bf d13d 64c1 89bd 83fb 20bd 4c03 03be
00000130: ce57 583d 3518 b8bd 2af7 f5bd 2ac3 d9bd
00000140: 89ac 063e 416f 31bd efb7 c0bc b16e af3d
00000150: 9f27 02bc a08a a43c 098e 963b c870 1fbb
00000160: 293c 72bd f0ea dbbd e57c f0bd 7c69 bebb
00000170: b6e6 81bd 647e c8bd b8ce 75bd 8cf5 733d
00000180: de7d 07be a5dd a03c c4d4 5fbc 2bc3 b3bc
00000190: 1b22 0c3e 5057 da3d e289 eebb 2c88 a8bd
000001a0: 6588 38bd 2a5e acbd dbdd 59bd deb0 1bbd
000001b0: 6269 0abd 8194 183d eb3d e6bd 98e4 cbbc
000001c0: d0c7 55bd a8b9 fb3d 0d21 9c3d de75 943d
000001d0: 3616 58bd eca5 b8bd 095a a4b9 7d8a dbbd
000001e0: 45fa 23bd 9182 7cbb 8966 a8bd 2578 ac3d
000001f0: 0fbc 7abd 5e80 d5bd e667 3a3d 2faf c5bd
00000200: c21d 2fbc 5bff 05be b6c3 c5bd 58e8 bb3d
00000210: 0137 0e3d 73ac eabb 4c4f 0a3d 3e2f 3a3c
00000220: 3a94 f2bc 480b 153d b79b 02be c3a0 28bd
00000230: e311 653d a539 4cbd 2060 723d ecfb 7abb
00000240: a02d 11be f5be cdbd 4c08 ccbd f7b7 223e
00000250: 32cd 16be 82f7 a83d 9ca8 7a3c cff9 e7bd
00000260: e184 18be 885a 8e3d bec6 bd3c c554 cebd
00000270: 6b50 173e 585d c03c 8100 e3bb b09d 0bbd
00000280: 0d18 0c3d e0a3 0ebd ad3b e53d 208f e83d
00000290: d0ba 443d affb ad3d e2b8 86bc 1b8f f13b
000002a0: edd3 393b c4d8 703d 6977 c83d c061 c63d
000002b0: 404f d73c b39f 3bbd 013b 10be 26e1 0a3e
000002c0: 485c e23c 2995 ebbc 3af0 b1bd 61c5 92bc
000002d0: 88c8 c23b ccac 77bd 7462 e83d d239 1d3e
000002e0: f017 8dbc b78f 87bd 8cc6 d13d 6ca8 173d
000002f0: 0cfa 29bc c185 14bd 92d9 953d 8128 5e3d
00000300: ffd1 c13d 01f1 923d f062 7d3d b71b a53d
00000310: 105a d73d d21e 05be 1932 b039 916b 51bd
00000320: 349d f83c 5d77 d93c 4116 b73c f790 6fbc
00000330: f8b0 2c3d 365b cdbd 7563 c33d 1098 d33d
00000340: f3e6 cdbd 4564 b83d 0ab4 01bd 122e 3ebd
00000350: 07b1 edbc f6ef b9bd 82db 5b3d 339b 71bd
00000360: 6f2c c3bc 129f ac3d ff43 4cbc d70b e3bd
00000370: f1be a63c b56c 18bd 471e 80bd 24de 853d
00000380: 18a5 a93d ade6 a7bc 96c3 0a3a 936b 62bd
00000390: 2437 023e 40fc df3d 744a babd 6e45 0ebd
000003a0: fab8 f6bd 9ae2 efbd 082f eabd a208 be3c
000003b0: 626a cbbd ccdd ebbc 75e9 d9bd 4bac 8dbd
000003c0: 1355 8fbd be70 143d bd6d 253d 0477 1cbc
000003d0: 6cc4 373d 6b24 f7bd 688a d43d 3254 bbbd
000003e0: f4e4 3cbd fb55 c63c 8ee1 aebc 34d6 86bd
000003f0: da73 c5bd 7b0d be3d 8bdd d03d 1014 103c

mlp.0.bias f4 [32]
-0.027624557 -0.102873184 0.05290577 -0.035560895 -0.011879564 0.0036783894 0.1427036 0.035895318
0.11084728 -0.03440645 0.12259309 0.03673935 0.052596886 0.08026176 -0.053348884 0.090405434
-0.061066035 -0.017290523 0.04689742 -0.04301439 0.0728049 0.07203689 -0.036810525 0.0059543713
-0.021424705 0.087975845 0.07249808 -0.1425775 -0.03892843 -0.0866397 -0.009305301 -0.13855962
00000000: e54c e2bc 2daf d2bd b8b3 583d 4da8 11bd
00000010: 81a2 42bc 2211 713b e420 123e f806 133d
00000020: e603 e33d c7ed 0cbd 1612 fb3d 007c 163d
00000030: d56f 573d 4760 a43d 5c84 5abd 7c26 b93d
00000040: 6120 7abd dba4 8dbc 8217 403d db2f 30bd
00000050: bc1a 953d 1488 933d a2c6 16bd e31c c33b
00000060: dd82 afbc ae2c b43d e079 943d d6ff 11be
00000070: 6b73 1fbd 2870 b1bd 4375 18bc 93e2 0dbe

mlp.2.weight f4 [16, 32]
0.04410281 -0.020243175 0.027174672 -0.07606641 -0.1308244 0.09293985 -0.11174266 -0.11293421
0.18834454 0.09382574 0.16481206 -0.110136986 -0.1371746 -0.0027305582 -0.19608203 0.1089806
-0.17107335 0.08711892 0.004734688 0.057591002 0.18779464 0.19023994 -0.1658835 0.024288928
0.092107706 0.14264949 -0.07434742 -0.19725552 0.028741159 -0.13930053 0.13069478 -0.17342024
0.10375567 0.077473946 0.17722236 0.027308865 0.13411412 0.12565541 0.1637873 -0.049861908
0.20296569 -0.023471782 0.094404444 0.12901925 0.15562642 -0.09991414 0.05069113 -0.16535953
-0.12272884 -0.0245535 -0.017799426 0.1637142 -0.14828251 0.07011465 0.07317995 0.077302106
-0.04435782 0.028626343 0.16096324 -0.19158961 -0.15296242 -0.01645618 -0.012461858 0.06511861
-0.09362701 -0.012188437 0.08845812 0.0014472702 -0.099822946 0.05082411 0.055209037 0.056334186
-0.08254568 0.0032542127 -0.021688424 -0.09588745 -0.04854627 -0.14033225 0.16686873 -0.10827805
-0.054613825 -0.06368869 0.14152297 -0.14309746 0.112589076 -0.18477146 -0.04885238 0.052007694
0.071420066 0.13587737 -0.14967655 0.13104463 -0.12261932 0.1377856 0.025675451 0.034681737
0.14849606 0.0862651 -0.14918144 0.05626597 -0.0949285 -0.1286128 -0.10853179 0.036161233
0.008359027 -0.04512281 -0.00731811 0.0057169194 0.05134416 0.0841571 -0.10837682 -0.059608735
0.07974202 -0.08168742 -0.17609952 -0.037983265 0.0947529 -0.010798668 0.07760683 0.13462934
0.15612695 0.006280567 -0.046074938 -0.13056824 0.08433706 0.07736603 -0.14932092 0.07928602
0.09280837 0.032829694 0.16707507 0.03412236 0.124539346 -0.017800236 -0.03984669 -0.013524848
-0.097633265 -0.13821137 -0.07539782 0.16437289 -0.13356967 0.084940374 0.11596128 -0.16901167
-0.12612084 -0.022729462 0.13355425 -0.09454958 -0.13241851 0.09644741 -0.006327282 -0.054893132
0.06554442 -0.13224004 -0.1329573 0.092160024 -0.16031812 -0.17604873 -0.18300866 -0.08342566
0.049435973 -0.09279722 -0.050194267 0.06571125 -0.055110566 -0.038897224 0.14920479 -0.07744536
0.011357542 0.049490854 -0.053494237 0.17942584 -0.02482022 -0.017068 -0.12787816 -0.21809597
-0.029710013 -0.008119123 0.04186837 -0.13951725 0.08949216 0.19629405 -0.14746909 0.009276387
0.06542153 -0.044773124 0.10300217 -0.18105483 0.008225507 -0.19228156 -0.097593434 -0.006205504
0.016304893 -0.059024706 -0.050944563 -0.0654544 -0.12662636 -0.22270313 -0.09149738 -0.06529795
-0.14517672 0.073041625 0.055942085 -0.1159008 0.083364405 0.08332 -0.056737065 -0.16211195
0.10833138 -0.02891601 -0.011900662 0.1389624 0.16320449 -0.022123136 -0.14620076 -0.08957828
-0.15913758 -0.0922545 -0.042662315 0.009249453 -0.18616222 0.112754814 -0.116051316 0.05064117
0.12952769 -0.025124907 0.09367021 -0.028473876 0.11498954 -0.010746697 0.0836394 0.06959458
-0.017906118 0.06873632 -0.08198568 -0.072020836 0.06335806 0.021131225 -0.040026393 -0.11264572
-0.052963603 0.07756608 0.091428824 0.11980606 -0.14767826 0.06810266 -0.0038939035 -0.0551875
-0.04445674 0.1980285 -0.08512363 -0.14737393 -0.15514612 0.07660535 -0.059569556 0.0006209555
00000000: 26a5 343d 04d5 a5bc 6b9d de3c b5c8 9bbd
00000010: d5f6 05be 4057 be3d 56d9 e4bd 0d4a e7bd
00000020: 64dd 403e b627 c03d 7ec4 283e 808f e1bd
00000030: 8077 0cbe 2af3 32bb bac9 48be 3931 df3d
00000040: da2d 2fbe 686b b23d 7125 9b3b 8be4 6b3d
00000050: 3d4d 403e 42ce 423e 5ddd 29be 93f9 c63c
00000060: f7a2 bc3d b512 123e 7643 98bd 5afd 49be
00000070: 9472 eb3c cca4 0ebe dad4 053e 1395 31be
00000080: da7d d43d a9aa 9e3d c779 353e d7b6 df3c
00000090: 3655 093e d0ab 003e dcb7 273e 003c 4cbd
000000a0: 3dd6 4f3e e547 c0bc 1e57 c13d 9f1d 043e
000000b0: 885c 1f3e c99f ccbd 81a1 4f3d 0254 29be
000000c0: 4259 fbbd 6c24 c9bc 1ad0 91bc b2a4 273e
000000d0: 5fd7 17be 4598 8f3d 5fdf 953d 9150 9e3d
000000e0: 8cb0 35bd cb81 ea3c 8cd3 243e 1130 44be
000000f0: 2ea2 1cbe 1ccf 86bc d22c 4cbc e85c 853d
00000100: 85bf bfbd 03b2 47bc 8829 b53d 54b2 bd3a
00000110: f96f ccbd f12c 503d df22 623d adbe 663d
00000120: b60d a9bd a144 553b ecab b1bc a460 c4bd
00000130: 74d8 46bd 42b3 0fbe a3df 2a3e e2c0 ddbd
00000140: bfb2 5fbd 376f 82bd 66eb 103e 2488 12be
00000150: 1a95 e63d bb34 3dbe 6f19 48bd 0506 553d
00000160: af44 923d 7023 0b3e cf44 19be 9030 063e
00000170: d71f fbbd ab17 0d3e 5355 d23c 700e 0e3d
00000180: 5a0f 183e c2ab b03d 05c3 18be 2577 663d
00000190: e069 c2bd 13b3 03be ea45 debd cd1d 143d
000001a0: 4df4 083c b2d2 38bd c2cc efbb ff54 bb3b
000001b0: 414e 523d 8f5a ac3d abf4 ddbd 4a28 74bd
000001c0: c94f a33d bc4b a7bd 6f53 34be 5794 1bbd
000001d0: cf0d c23d e5ec 30bc 54f0 9e3d 46dc 093e
000001e0: bedf 1f3e 37cd cd3b 13b9 3cbd aeb3 05be
000001f0: e9b8 ac3d 1572 9e3d 95e7 18be b560 a23d
00000200: 5112 be3d 6e78 063d ba15 2b3e e3c3 0b3d
00000210: 7c0e ff3d cdd1 91bc 4836 23bd 5397 5dbc
00000220: f3f3 c7bd 4887 0dbe 2c6a 9abd 5e51 283e
00000230: 7dc6 08be 38f5 ad3d 1c7d ed3d 6511 2dbe
00000240: d225 01be 2333 babc 72c2 083e 36a3 c1bd
00000250: b898 07be 3886 c53d 1755 cfbb 9fd7 60bd
00000260: 273c 863d ef69 07be f525 08be 65be bc3d
00000270: 6f2a 24be 1e46 34be 9f66 3bbe 13db aabd
00000280: 607d 4a3d 780c bebd 8198 4dbd 9f93 863d
00000290: 9ebb 61bd b252 1fbd 24c9 183e ac9b 9ebd
000002a0: fc14 3a3c ecb6 4a3d c61c 5bbd 68bb 373e
000002b0: c653 cbbc 31d2 8bbc 7ef2 02be 8d54 5fbe
000002c0: 6a62 f3bc 1206 05bc 2b7e 2b3d 9cdd 0ebe
000002d0: aa47 b73d 4f01 493e 2302 17be fdfb 173c
000002e0: b9fb 853d 0664 37bd cdf2 d23d 7066 39be
000002f0: 47c4 063c 75e5 44be 11df c7bd 8a57 cbbb
00000300: d791 853c e4c3 71bd 3fab 50bd f50c 86bd
00000310: 57aa 01be 4a0c 64be fa62 bbbd eeba 85bd
00000320: 35a9 14be d996 953d 8723 653d 665d edbd
00000330: f5ba aa3d ada3 aa3d 2065 68bd ad00 26be
00000340: d8dc dd3d 45e1 ecbc fffa 42bc 294c 0e3e
00000350: 141f 273e 943b b5bc a7b5 15be d174 b7bd
00000360: f6f4 22be edef bcbd aebe 2ebd 058b 173c
00000370: 4fa1 3ebe ffeb e63d 50ac edbd 1e6d 4f3d
00000380: e8a2 043e c0d2 cdbc 2bd6 bf3d 0c42 e9bc
00000390: a37f eb3d ea12 30bc 224b ab3d 9a87 8e3d
000003a0: daaf 92bc a1c5 8c3d 1ce8 a7bd a97f 93bd
000003b0: dfc1 813d 641b ad3c b7f2 23bd cdb2 e6bd
000003c0: 5df0 58bd f7da 9e3d 093f bb3d e15c f53d
000003d0: f838 17be 6879 8b3d dc30 7fbb 4a0c 62bd
000003e0: 4518 36bd fcc7 4a3e 4c55 aebd 31e9 16be
000003f0: a0de 1ebe 44e3 9c3d 35ff 73bd 9ec7 223a

mlp.2.bias f4 [16]
0.04405476 0.030100603 0.047988966 0.026172303 -0.11624249 -0.07082419 0.10039446 0.024800805
0.0713907 0.015426338 0.083139606 -0.044909872 0.15695165 0.07656207 0.05273097 -0.10721795
00000000: c472 343d 8a95 f63c 1490 443d 4c67 d63c
00000010: 8b10 eebd 460c 91bd 9c9b cd3d 0f2b cb3c
00000020: 4a35 923d c0be 7c3c 1945 aa3d 6af3 37bd
00000030: efb7 203e 93cc 9c3d 6efc 573d 1695 dbbd

mlp.4.weight f4 [1, 16]
0.26571563 0.25332952 -0.22630721 -0.15461339 0.21659353 0.024064574 0.023032913 0.1344693
0.17420155 -0.23365994 -0.024081636 -0.10296974 0.2157271 0.056786086 0.25372913 -0.24283832
00000000: e10b 883e 68b4 813e 14bd 67be f952 1ebe
00000010: b2ca 5d3e 1223 c53c 85af bc3c 52b2 093e
00000020: e461 323e 8d44 6fbe da46 c5bc cde1 d2bd
00000030: 91e7 5c3e 8798 683d c9e8 813e 9caa 78be
