time_series data prediction with gru and lstm/lstm.pt (torch, 82581 bytes, 9 tensors)

gru.weight_ih_l0 f4 [256, 1]
000000 28 c6 30 3e 49 9e e1 3d e1 1e ed 3d 43 81 a5 3d
       0.1726309 0.110165186 0.11578155 0.08081295
000010 d3 90 40 3e 51 f1 71 3d dd 4d 0c 3d 8d 1b 9f 3c
       0.18805246 0.059068028 0.034253944 0.019422317
000020 6c 67 87 3d 81 b3 d3 bd 5a 30 5e 3d 18 26 b9 3d
       0.06611523 -0.10336972 0.05424533 0.09040469
000030 51 3c bf bb 04 d4 93 3c 01 1b a9 3d 05 01 eb bc
       -0.0058360477 0.018045433 0.08257104 -0.02868701
000040 9f e5 12 3d 51 66 44 3e b3 12 3d bd 2e a7 f1 3c
       0.035863515 0.19179656 -0.04616041 0.029498663
000050 bb 79 1f bc 37 d5 27 3e 5e da 7c 3d 39 b1 82 3d
       -0.009733613 0.16389929 0.06173169 0.06381459
000060 33 f5 2c 3d d2 6f af 3b 8a 02 f0 3d af e6 b4 3d
       0.042226028 0.005353906 0.11719234 0.08833062
000070 4b 1e dd 3d a0 1d 3b 3e ee 4d 82 3d d0 70 ba 3d
       0.107967936 0.1827302 0.0636252 0.091035485
000080 db 91 3f 3e 01 8b ae 3d c6 6c 00 3e 87 ad 03 bd
       0.18707983 0.08522607 0.12541494 -0.03214791
000090 b4 21 24 3e e8 1c a9 3d 88 24 2f bc 09 a4 20 3e
       0.16028482 0.082574666 -0.010689862 0.15687574
0000a0 b8 8f 4c bd a8 c3 22 3e 4f 46 3a 3d 79 29 a2 3d
       -0.04994175 0.1589495 0.045477208 0.079180665
0000b0 82 6d 4b 3e 02 4d 42 3e 58 72 38 3e 5b c6 a2 bc
       0.19865993 0.18974689 0.18012369 -0.019869974
0000c0 65 12 42 3e 8a 58 13 3e cf 96 c8 3d 62 34 0c 3b
       0.1895233 0.14389244 0.097943895 0.0021393527
0000d0 9a 07 83 3d f8 60 cd bc 9a dc 13 be 3c 7b 8e bd
       0.06397934 -0.025070652 -0.14439622 -0.06957099
0000e0 7e 9a af 3d 96 f4 e6 3d b3 fe 54 3e 11 2e e1 bc
       0.08574389 0.1127712 0.20800285 -0.027487786
0000f0 67 24 ee 3d 45 8b 9a 3d f8 ab a6 bd ac 02 39 3e
       0.11628037 0.07546095 -0.08138269 0.18067425
000100 6a 8c 38 3e 0d 79 93 bc 15 d4 d8 3c 18 fc f5 3c
       0.18022314 -0.018002057 0.026468316 0.030027434
000110 26 68 22 bd 75 34 c9 3d 3c 52 1e bd 33 d9 91 bc
       -0.039650105 0.098244585 -0.038652644 -0.017803764
000120 54 a1 4e 3d 0a 01 b9 bd 8d 0e 26 3c 10 9f 9d 3d
       0.050446823 -0.09033401 0.010135305 0.076963544
000130 3b 53 e2 bb d3 a5 65 bc 06 15 e5 3d 1d 37 37 3e
       -0.0069068945 -0.014016586 0.111856505 0.17892118
000140 07 42 ef 39 fc 10 47 3e 4f c2 bf 3b 0b 70 03 bd
       0.00045634827 0.19440073 0.005852021 -0.032089274
000150 46 5f 35 bd 73 5a 02 bd 6f f1 3b 3d 1d 50 35 3e
       -0.044280313 -0.03182454 0.045884546 0.17706342
000160 ba 0e 40 3e c2 7f 75 bd 69 79 c3 3d 2a 4b 40 3e
       0.18755618 -0.059936292 0.095446415 0.18778673
000170 c8 2d 0d 3e 8a 09 00 bd 47 7c 3a 3d b7 3c 04 3e
       0.13786995 -0.031259097 0.045528676 0.12913786
000180 a3 63 d0 bc eb be c1 3d eb 42 fa bc e6 9e 46 3e
       -0.025438135 0.09460243 -0.030549487 0.19396552
000190 f8 db 03 3d 3c 02 4d 3e 4f 71 2f 3d a5 3e 62 3d
       0.0321922 0.20020384 0.04283267 0.055235524
0001a0 d6 f4 9f bb f6 fa 0e 3e e3 99 cd 3d d9 74 2d bd
       -0.0048814816 0.13962922 0.10039117 -0.042347763
0001b0 5d 66 ca 3d c9 77 3f 3e 55 e3 6b 3d ca ea 3a 3e
       0.098828055 0.18698038 0.057589848 0.18253627
0001c0 a1 6b 1a 3e c4 18 d6 3c 90 ab 79 3d c4 75 25 bd
       0.1508012 0.026134856 0.06095463 -0.040395513
0001d0 4d 7f 2a 3d ef a0 01 bc b9 09 28 bd 50 f5 cf bb
       0.04162531 -0.007911905 -0.041024897 -0.006346382
0001e0 ab 92 46 3d f9 e0 1e 3e 68 a1 4e 3e 36 77 f9 bc
       0.048479717 0.15515508 0.20178759 -0.030452352
0001f0 76 53 45 3e 24 c0 39 3e 04 d8 8c 3d fa 63 91 bb
       0.19270119 0.18139702 0.06877139 -0.004436967
000200 3b 94 d7 bb 55 6c c7 bd 7b 6d 16 be 21 30 a2 3d
       -0.0065789497 -0.097374596 -0.14690201 0.07919336
000210 5b 19 42 3e fc 4e 18 be a5 1a 2c 3d 8e 64 9d bd
       0.18954985 -0.1487388 0.042017598 -0.07685195
000220 98 4d 38 3e 91 81 ce bd 28 9c dc 3d f0 3a 10 be
       0.1799835 -0.100833066 0.10771972 -0.14084983
000230 38 59 d0 3c 8f 41 a2 bc 9d c0 67 3c 7d 21 e9 bc
       0.025433168 -0.019806651 0.014145044 -0.028458351
000240 28 00 f9 3d 3f 04 92 3c a9 36 58 3c f2 76 ea 3d
       0.12158233 0.01782429 0.013196626 0.11448468
000250 ee d5 3b bd 30 e6 07 bd 67 87 54 3e e8 06 41 be
       -0.045858316 -0.03317851 0.20754777 -0.18850291
000260 f4 6d 2e be ac fb 48 bd ef d2 4d 3e fa 7f 27 be
       -0.17034131 -0.049068138 0.20099996 -0.16357413
000270 a6 22 0b 3d b1 cc 1e be a7 db 48 3e 85 96 c7 bc
       0.03396859 -0.15507771 0.1961504 -0.024363765
000280 dd b9 02 3d df 10 f4 3d 9c 11 03 3e f3 85 46 3d
       0.031915534 0.119172804 0.12799686 0.048467588
000290 57 8c 55 3e 14 0b bb 3d c2 d2 1b 3e 61 2a fe 3d
       0.20854317 0.09132972 0.15217116 0.12410427
0002a0 64 f4 13 3e e6 d5 ad 3c 2d f6 86 3c 6f 57 f6 3d
       0.14448696 0.021220159 0.016474808 0.120283954
0002b0 1f f7 19 be 6c cd 42 be 06 74 21 bd 84 3b 2e be
       -0.15035675 -0.19023675 -0.03941729 -0.17014891
0002c0 8e 8f 3d 3e e8 a7 90 bd df 54 89 bd e7 ff dd bc
       0.18511793 -0.070632756 -0.06705641 -0.027099563
0002d0 0f bf 46 3d fd e4 68 bd 9b b4 98 3d 00 d7 60 3d
       0.04852205 -0.056859005 0.07456323 0.05489254
0002e0 6c bc 38 3e 77 c1 cc bc 42 c3 0e 3e fa 55 4c 3e
       0.18040627 -0.024994595 0.13941672 0.19954672
0002f0 07 b7 01 3e 5e c5 9c bd 58 4e 83 3d 1e e3 27 3e
       0.12667476 -0.07654832 0.06411427 0.16395232
000300 7a 03 e9 3d 0a b4 89 bc f9 13 ee 3b a8 2b ba 3d
       0.11377616 -0.016809482 0.0072655645 0.09090358
000310 df 98 40 bd f3 e9 8c 3d 78 a9 19 3e b1 18 24 3e
       -0.04702079 0.0688056 0.15006053 0.16025044
000320 f1 85 99 3d 2c d8 4c bd 5d 7e cf bc f3 03 dc bc
       0.074962504 -0.050010845 -0.02532881 -0.026857352
000330 ac 30 46 3d 7b 35 21 3e 76 2e 54 3c 2b aa b0 3d
       0.04838626 0.15743057 0.01295053 0.08626207
000340 81 9f 33 3e b5 cf 4a 3e a1 97 39 3e 62 00 cb 3d
       0.17541315 0.19805796 0.18124248 0.099121824
000350 a3 78 cf bc ed 96 0e bd 9e 32 36 3e 06 ad 75 3d
       -0.025326079 -0.034811903 0.17792746 0.05997946
000360 69 3b 4c 3e 26 63 54 3d b6 78 4d 3e 6a 83 03 bd
       0.19944538 0.051852368 0.20065579 -0.032107748
000370 1f 75 fe 3d eb 5b 1c bc f1 70 fe 3c 64 62 31 3e
       0.12424683 -0.009543399 0.031059714 0.1732269
000380 11 83 f9 3d c7 6a 43 3d c3 aa 84 bd 92 4f 80 3d
       0.12183202 0.047709253 -0.06477883 0.06265177
000390 7d f9 bf 3d a4 e2 b0 bc 37 b4 06 3c 9b e2 26 3d
       0.09373758 -0.021592446 0.0082216775 0.04074345
0003a0 55 f5 bf 3d ac 7f 0a 3e 85 ce 50 3e 0e a5 a6 ba
       0.09372965 0.13525265 0.20391281 -0.0012713985
0003b0 e7 e2 a3 3d e1 d4 87 3d 6e 0d 26 3e cd 33 ef 3d
       0.080022626 0.066324 0.1621606 0.11679802
0003c0 0f a9 21 3c dc 3b 15 3e c2 7f 46 3d a3 ff 0c bd
       0.009866967 0.14573616 0.048461683 -0.03442348
0003d0 3e e1 1c 3e a8 a0 de b6 2e 10 bb bb 75 cb 91 3c
       0.15320298 -6.6348184e-06 -0.005708716 0.017797211
0003e0 35 95 4b 3e eb 5c 00 3e 1c 78 29 3e 40 36 21 3d
       0.19881137 0.12535445 0.16549724 0.039358377
0003f0 bc e9 a5 3d 80 da 4b 3e 27 1f 65 bc 14 f2 0f 3e
       0.08101222 0.1990757 -0.013984478 0.14057189

gru.weight_hh_l0 f4 [256, 64]
000000 1f b2 bc 3d 47 1f 83 3c 7c f0 ce 3c a6 8d cf 3d
       0.092136614 0.016006125 0.025261156 0.10134439
000010 9c e5 f9 3d ba ec 72 3d b8 08 18 bd f8 5e 07 be
       0.12201998 0.05930779 -0.03711769 -0.13219821
000020 e5 19 2f 3c fd 62 e8 3d 6d a8 e8 bc 2b 12 67 bd
       0.010687326 0.113470055 -0.028400624 -0.05641381
000030 22 aa 72 3d 7f ce 05 3e 92 bb a3 bd 9e 78 71 3d
       0.059244283 0.13067053 -0.079947606 0.05895292
000040 e2 5a 3f 3d 6c ae 30 bc 07 da d8 bc 34 be 51 bd
       0.046717532 -0.010783773 -0.026471151 -0.051206782
000050 01 12 b4 3c 81 c3 8e bd 53 4d 86 bd 27 76 22 be
       0.021981241 -0.06970883 -0.06557717 -0.15865384
000060 51 27 4f 3d 1d 9e 35 3d a8 19 ed 37 85 79 0e 3d
       0.050574604 0.04434024 2.8264549e-05 0.03478386
000070 eb f0 22 3c 9d 34 13 be 78 e7 82 3c 67 e9 f5 3d
       0.009945135 -0.14375539 0.015979514 0.120074086
000080 9c 6e ed 3d c1 3e fb bc fe 85 cc bd 20 67 92 bd
       0.11593363 -0.030669572 -0.099864945 -0.07148576
000090 c4 71 09 3e 59 30 4a bd 77 bf 09 3e f4 14 d7 3d
       0.13422304 -0.049362514 0.13451944 0.10502043
0000a0 2a 2c 20 bc 8b 7e 0b bc df 87 92 3d 37 47 6d 3d
       -0.0097761545 -0.008514057 0.071548216 0.057929244
0000b0 1c f2 9a bb b6 cf fa bc 49 70 ee 3c 11 af e3 bd
       -0.0047285687 -0.030616622 0.029106276 -0.11117376
0000c0 52 1c e1 3d 5d 63 88 bc 48 4b a4 3d 59 66 f5 bd
       0.1099173 -0.016648943 0.08022171 -0.11982412
0000d0 99 18 89 bd 9d d6 28 bd e3 67 77 3d 08 aa 95 3a
       -0.06694145 -0.041220296 0.06040181 0.0011418471
0000e0 1c 08 13 3c 94 61 c3 3d 40 8f 02 3e 5a fd b2 bd
       0.008974101 0.09540096 0.12749958 -0.08739729
0000f0 1f 6c 03 3e 1e 16 09 3d 63 74 bc 3d 6b 5b 88 bd
       0.12834214 0.03346836 0.092018865 -0.066580616
000100 6f 86 fe 3c db 8e 95 3d dc 6b da bd 9a b4 71 3d
       0.031069962 0.07302638 -0.10665104 0.059010126
000110 38 88 0b 3e 15 dd d9 bd 0e bb 57 bd 72 d8 9a bc
       0.13626182 -0.10637871 -0.052668624 -0.018902037
000120 9c 8f 50 3d c0 0c 4a 3b 20 f2 fa 3d ff 6e c4 3d
       0.050918207 0.0030830353 0.12253213 0.09591483
000130 5b 02 f0 bd dd be fd 3d d8 da 81 3d 25 55 87 bd
       -0.11719199 0.1238992 0.06340569 -0.06608037
000140 76 d9 cf 3d bf 09 d5 bd 49 0b 55 bd 1a 4d b0 3c
       0.10148899 -0.104022495 -0.052012715 0.02152114
000150 b4 3a b0 bd 05 d9 4b bd 5e c7 91 bd d0 0b 09 be
       -0.08604947 -0.049767513 -0.071181044 -0.13383412
000160 78 c7 4d 3d cc 14 9e bd 3c 9c bc 3d 80 0a 0c be
       0.050239056 -0.077188104 0.09209487 -0.1367588
000170 f8 f2 0c 3d 40 2f 12 be 52 ab e4 bc 6d 8f 89 bd
       0.0344114 -0.14275837 -0.027913723 -0.067168094
000180 57 d8 03 3e 3d d8 03 3e 72 cd 65 bd 41 72 dc 3d
       0.12875496 0.12875457 -0.05610413 0.1076398
000190 ae c2 b2 3d b9 87 01 3e 20 6b 31 bd 23 b1 08 bd
       0.087285385 0.1264943 -0.043315053 -0.033372056
0001a0 eb 82 39 3d a6 d6 e6 3d d2 5e bb 3d ed 29 89 bd
       0.04529087 0.1127141 0.09148945 -0.0669745
0001b0 2e b9 fa bd 35 f1 9c bd 2b 76 dc 3d 5c c3 19 be
       -0.122423515 -0.07663194 0.10764726 -0.1501593
0001c0 9b 96 01 bc 10 61 a0 bd ab 72 fc bd b6 a8 3f bd
       -0.007909442 -0.07831013 -0.12326559 -0.046791755
0001d0 8c 75 d0 3c dc 77 05 be 19 8a b3 3d 56 1f 06 be
       0.025446676 -0.13034004 0.087665744 -0.13097891
0001e0 e5 37 9c bd 34 8f d5 bd 49 8e 95 3c 20 3e 64 3d
       -0.076278485 -0.104277045 0.018256323 0.05572331
0001f0 51 b1 8c bb d1 e8 f8 bc fb 04 a9 3d 68 23 f8 3d
       -0.0042935987 -0.030384453 0.08252903 0.12116128
000200 08 81 b5 3d b8 61 f5 3b 5c 2e 4e 3d cf e0 97 bd
       0.088625014 0.0074884556 0.05033718 -0.07415926
000210 80 e2 e2 3d 3d a3 e8 bd ff d6 c2 3d c1 d7 cc 3c
       0.11078358 -0.1135926 0.095136635 0.025005223
000220 ee ad 34 bd 6f 87 3b bc 39 1b 80 bd 7c 4e 1a bc
       -0.044111185 -0.011445864 -0.06255192 -0.009418126
000230 96 e3 62 3d c6 6d 3f 3c af 06 4f bd c8 91 f3 b9
       0.055392824 0.011683887 -0.050543483 -0.00046457187
000240 f6 20 7d bd 13 da 8a 3c 71 a6 54 3d 6f 61 40 bd
       -0.061799012 0.016949689 0.051916543 -0.04696792
000250 13 7f e9 bd 2f af a9 bc d8 d7 07 3e d4 97 a3 bd
       -0.114011906 -0.020713417 0.13265932 -0.07987943
000260 8e 5d 1f be f0 61 ce 3d be c4 f9 3d f8 b8 4e bd
       -0.15563032 0.10077274 0.12195729 -0.05046937
000270 08 f1 d8 3d 64 5e 00 bd 9b aa d4 3d d0 43 05 3d
       0.10592848 -0.031340018 0.10384103 0.032535374
000280 d1 e8 cd 3d 44 22 81 bd 01 2e f3 3c 07 e9 de bc
       0.10054172 -0.06305364 0.029685022 -0.027210725
000290 dd 4a b0 bd 49 14 96 bd 12 b9 b5 bd f3 09 b6 bd
       -0.08608029 -0.07328088 -0.0887319 -0.088886164
0002a0 61 db a8 bd da 95 c5 bd bb 5a 92 3d 82 0c 5f bd
       -0.08244968 -0.096477225 0.07146212 -0.054455288
0002b0 87 74 c4 bc c7 90 0c be e4 98 92 3d 21 5a 0e be
       -0.023981346 -0.13727103 0.07158068 -0.13901569
0002c0 16 85 6b 3d 8c 81 cb 3d d9 bb af bd dd 86 e1 bd
       0.057499968 0.099368185 -0.08580751 -0.11012051
0002d0 2f 9c f8 bd f6 7e aa b9 9c db 37 bc 8b c7 0a bc
       -0.12139165 -0.0003251952 -0.011221793 -0.008470426
0002e0 5e 21 ff bc 77 3a 8b 3d 2d b2 e3 3d f3 a5 bc bb
       -0.03114384 0.06798261 0.11117969 -0.0057570874
0002f0 02 73 bd 3c 54 d7 5a bd 8d 7e 77 3d 4a 93 14 3e
       0.023126129 -0.05342801 0.060423423 0.14509311
000300 86 1e 7d 3d 20 17 90 3d ce 77 5f bd 9e 18 e0 3d
       0.061796688 0.07035661 -0.054557614 0.10942195
000310 b3 21 a5 bd fc a7 87 3d 82 5e e0 3d b7 16 59 bb
       -0.08063068 0.06623837 0.10955526 -0.0033125111
000320 8b e6 18 bd 9f 17 97 3d 1b d7 09 3e 23 b4 a1 3b
       -0.037329238 0.07377552 0.13460962 0.004934804
000330 b9 59 4e bd 8c ed 8e bd ff 2a 6c bd 42 b3 d7 bd
       -0.050378535 -0.06978902 -0.05765819 -0.105322376
000340 85 04 d0 bc 75 3b b2 3d fa 82 e4 bd 68 74 4c 3d
       -0.02539278 0.08702747 -0.11157794 0.0499157
000350 31 be 78 bd 4d 3c 1f 3d ab 04 91 3d f9 d3 0d bd
       -0.060728256 0.038875867 0.070809685 -0.03462598
000360 22 27 51 bd 8a e8 00 be ca ae cf 3d 67 f6 d6 bd
       -0.05106271 -0.12588707 0.1014076 -0.10496216
000370 b7 9d 95 3c 2f 1d 04 3a 7d 85 22 3d 10 e5 98 3d
       0.01826368 0.0005039749 0.039678086 0.07465565
000380 cb f4 15 3e 43 7f 03 3e e9 a3 06 3e 12 88 5f 3d
       0.14644162 0.12841515 0.13148464 0.054573126
000390 df 20 0d 3d e7 bd fe bc b6 df 03 bc f0 ba 35 3d
       0.034455176 -0.031096412 -0.008048942 0.04436773
0003a0 90 4b 30 bd 5e 14 10 be 73 c5 bc bd df b6 dc 3d
       -0.043040812 -0.1407027 -0.09217348 0.107770674
0003b0 68 15 96 bd 4f 6f 89 bc 94 da 95 3d c5 c8 20 bd
       -0.07328302 -0.016776709 0.07317081 -0.03925397
0003c0 40 04 cb 3d f3 10 6b 3d 85 a0 45 3d 4f 84 bb bc
       0.0991292 0.05738921 0.048248786 -0.022890238
0003d0 a1 d4 ad 3d 82 5f e1 bd e5 9d 10 3e 09 50 5a bd
       0.08487821 -0.11004545 0.14122732 -0.053298984
0003e0 81 8e 2a 3d e1 0f d1 bc e2 01 a4 bc a7 cd d0 3b
       0.04163981 -0.025520267 -0.020020429 0.006372172
0003f0 3e 84 81 3d f4 39 a1 3c a2 6e 98 bd 25 33 b2 bd
       0.06324051 0.019680955 -0.074429765 -0.08701161

gru.bias_ih_l0 f4 [256]
000000 f1 b9 7d 3d e2 21 c0 3c 19 ea 68 bd a2 84 54 bd
       0.061944906 0.023453657 -0.056863878 -0.0518843
000010 e7 36 ca 3c cd 33 ac bd 09 7b ab 3d b4 2d 88 3d
       0.024684383 -0.08408318 0.083730765 0.06649342
000020 92 3a 58 bd c2 d7 53 bd 52 1b af 3d cc d8 8e bd
       -0.052790232 -0.051719435 0.08550133 -0.069749445
000030 28 d3 ac 3d 55 0b fb 3b fb d8 54 bd e8 e2 3b 3d
       0.08438712 0.007661263 -0.05196474 0.04587069
000040 78 7f 09 3d 4f df 98 3a 51 73 b9 3d ca ff d8 3c
       0.03356883 0.0011663231 0.09055198 0.026489157
000050 89 3c f9 3d a7 40 dc bd f1 5f 77 3b 3a 3c df 3d
       0.12169749 -0.10754519 0.0037746395 0.10900159
000060 5e d3 30 3d 86 bb a5 3d f1 10 bc 3c 91 be 07 3e
       0.043170325 0.08092408 0.022957297 0.13256289
000070 ba e2 95 3d b4 2d 9c 3d 19 06 61 3d 3e c5 c0 bd
       0.07318635 0.07625905 0.054937456 -0.09412621
000080 22 76 2a bd 2d e1 9a 3d 82 be 46 bd ca e5 db bc
       -0.041616566 0.0756248 -0.048521526 -0.02684297
000090 42 37 a6 bd fd 0b d3 3c be 12 c4 bd 8f 15 fa bd
       -0.08116008 0.025762552 -0.09573887 -0.12211143
0000a0 1b 8b 32 3d 9b 73 67 bd e9 2d 55 3d 59 09 cb bc
       0.043589693 -0.056506734 0.052045736 -0.02478473
0000b0 4e 5d 38 bc a9 1d 9b bc 45 84 39 3d 59 f6 31 bc
       -0.011252714 -0.018935042 0.045292158 -0.0108619565
0000c0 43 4d c2 bd 9a 7d f4 3d 9e 93 53 3d 9f 31 20 bd
       -0.09487393 0.11938019 0.05165445 -0.039109822
0000d0 82 15 db 3c e4 8a cc bd d0 83 0a 3d 14 64 bf bd
       0.026743654 -0.09987429 0.033817112 -0.0934526
0000e0 88 f5 bd bc 79 40 d9 3c 41 4b 77 3d 5f ae 6f bc
       -0.023188367 0.02652 0.060374502 -0.014628976
0000f0 57 8d ce 3d b8 83 fa 3d 21 a7 7f bd c6 0a e8 3d
       0.10085552 0.122321546 -0.062415246 0.1133018
000100 6b 8e 10 bd 4b 69 65 3d 3d af 8e bb b1 f4 a1 bc
       -0.03529207 0.05600862 -0.004354386 -0.019769998
000110 a3 f4 87 3d d8 15 9f 3d 6f bc e7 3c 54 fd ba 3d
       0.066384576 0.07767838 0.028288094 0.0913035
000120 ab da 88 3c 54 63 f1 bd ad 43 66 bd 14 76 fa bb
       0.016705832 -0.117865235 -0.056216884 -0.0076434705
000130 4c 18 97 bb 7f 43 b7 bd cc e6 9b bd 38 09 69 3d
       -0.0046110507 -0.08948421 -0.076123804 0.056893557
000140 aa b3 a9 3d ed 9c 8c 3d 79 7d aa 3c 2f d8 1d 3d
       0.08286221 0.06865869 0.020811783 0.038536247
000150 54 4b c8 bd e8 ed 76 bd 30 17 09 3d ea f2 19 3e
       -0.09779993 -0.06028548 0.03346938 0.1503407
000160 e5 1d 9b bd 64 be 75 3d 26 6f de bb fc 16 55 bd
       -0.07574061 0.059996024 -0.0067881523 -0.052023873
000170 13 3e ec 3d e7 9c a0 3c 7c a2 e9 3d 76 69 04 3e
       0.11535277 0.019606067 0.114079446 0.12930855
000180 6e 6c ae 3d 3d 57 63 bc cb 3b df bd 70 b7 92 3d
       0.08516775 -0.01387578 -0.109000765 0.07163894
000190 31 13 55 bd 8a 1d a6 bd 88 bf 8f 3d d3 89 6e bc
       -0.052020255 -0.08111103 0.070189536 -0.014559227
0001a0 42 ff d7 3c af 38 cd 3d c2 6b d8 bd 7b 34 97 3d
       0.026366834 0.10020577 -0.10567428 0.07383057
0001b0 11 96 c7 3a 14 a7 7e 3d 08 de e1 3d fe ea 13 3e
       0.0015227218 0.062171057 0.11028677 0.14445111
0001c0 9c be c0 bd 94 56 57 3b f6 07 92 3d 09 e7 fe bb
       -0.09411356 0.0032858 0.07130425 -0.0077790064
0001d0 ad c5 a0 3d 7d b5 08 be a1 de c0 3d bd 88 90 3d
       0.07850204 -0.13350482 0.09417463 0.07057331
0001e0 3c 82 e7 3d 55 22 d4 3d 51 2f 68 3c 22 d6 0b 3e
       0.11304137 0.10358111 0.014171437 0.13655904
0001f0 05 8f fb 3d 71 7a ab 3d f3 a8 9c bd e8 bf 7d bd
       0.12283138 0.08372963 -0.07649412 -0.061950594
000200 44 91 05 be 56 62 e2 bd 5f 8f 99 bc 35 f5 7d 3d
       -0.13043696 -0.11053912 -0.018745122 0.062001426
000210 f3 55 4f 3d 33 26 07 3e a9 bd ef 3d 93 fe d0 bd
       0.050619077 0.13198166 0.11706097 -0.10204806
000220 07 bb bc 3d d3 0f a7 3d 2a de 7b 3d 10 29 3a bd
       0.0921536 0.08157315 0.06149117 -0.045449317
000230 a9 74 cf bd d1 a7 ab 3d ac a4 e7 3b 34 de 53 3c
       -0.10129673 0.08381618 0.007069191 0.012931395
000240 1d b4 e7 bb 04 eb 02 3e 71 32 34 3d ce d0 bf bd
       -0.0070710317 0.12784964 0.043993417 -0.09365998
000250 4b 3d da bd 52 c7 9a 3d 1a 54 0d bd 3f d4 4a 3c
       -0.10656222 0.075575486 -0.034504034 0.012379705
000260 b2 c2 4b bd 60 55 36 bb 95 bf a3 3d 07 f5 f8 3d
       -0.049746223 -0.0027821884 0.07995526 0.1215611
000270 c1 ac 98 3d 73 29 64 bd c1 d3 69 bd 75 3d 8b bc
       0.07454825 -0.05570359 -0.05708671 -0.016997078
000280 64 ff 8d 3d 2b c6 28 3c 03 22 8b 3d be 19 65 bd
       0.069334775 0.010301153 0.067935966 -0.055932753
000290 59 13 da 3b 3f d0 86 3c 83 d1 49 3d 73 07 31 3d
       0.0066551385 0.016456721 0.04927207 0.043219995
0002a0 67 c0 09 3d 9b bc e8 bd f4 2e 21 3d b4 b4 f5 3d
       0.033630755 -0.11364099 0.03935142 0.11997357
0002b0 e1 c9 70 bd 58 5e 43 3d 23 9c fc 3b 59 32 22 3d
       -0.058786277 0.047697395 0.0077090426 0.039598797
0002c0 7a 42 5e 3d 9b ba b5 bd e1 1e ea bd 15 1c bf 3d
       0.054262616 -0.08873483 -0.11431671 0.09331528
0002d0 9d cb 22 bd fb a1 81 bd f4 e9 8c 3d a4 7d 02 bd
       -0.039744962 -0.063297234 0.068805605 -0.0318581
0002e0 f2 65 2c bb e6 10 0d 3e 15 1a b9 bd 5e 29 b1 3d
       -0.0026305881 0.13775977 -0.09038178 0.08650468
0002f0 e5 86 8c bc 40 49 d6 bd 9b 66 c0 bd 07 bd 5a bd
       -0.017154166 -0.1046319 -0.093945704 -0.053402927
000300 d7 7b 60 bd 55 ee 09 3e 19 2b 4f 3d 8e 84 df bc
       -0.054805603 0.13469823 0.05057821 -0.027284887
000310 50 ef b2 3d ff f6 86 3d 0d 23 27 bd 37 00 d0 bc
       0.087370515 0.065900795 -0.04080491 -0.025390727
000320 4c 29 85 3c ca 97 e4 3d d0 ee c5 3d 56 7a 84 3c
       0.016255043 0.11161764 0.096646905 0.016171616
000330 30 08 c1 bd 40 bf aa 3d 85 86 ce 3c 2f 05 5d bd
       -0.0942539 0.08337259 0.025210628 -0.05396002
000340 80 b5 65 3d 42 0b 08 3d b1 ef ed bb 19 6b 6e 3d
       0.056081295 0.03321386 -0.0072612395 0.058207605
000350 ee 17 fd bc 87 ee 45 3c 51 d6 b9 bc 9f d7 10 3e
       -0.0308952 0.012080795 -0.022685202 0.14144753
000360 ee fc 09 3e 8b e1 ae bd c4 e9 9a 3d d6 09 4c 3a
       0.13475391 -0.08539113 0.075641185 0.0007783448
000370 7b 3b 73 3d 41 e6 93 3d 72 e3 85 3d 54 6b b8 3c
       0.059382897 0.07221652 0.065375224 0.022512116
000380 eb 59 86 bc 1a ee c2 3b 35 f5 06 3c f4 9a e0 bc
       -0.016400298 0.005948794 0.008237173 -0.027417637
000390 66 59 c5 3d e4 5e df 3b e4 5f c0 3d 78 38 cb 3d
       0.09636192 0.0068167318 0.0939329 0.0992288
0003a0 93 8b a0 3d fb 2b f5 3d cb 4b 86 3d b5 a0 0f 3e
       0.07839122 0.11971279 0.06557425 0.14026149
0003b0 83 12 ad bd 20 06 84 3d b9 60 4d bd 3d 74 cb 3d
       -0.084507965 0.06446481 -0.05014107 0.0993428
0003c0 ad 25 ae bd 00 43 97 bd 02 d4 d4 3d 7d 8a 83 3d
       -0.0850328 -0.07385826 0.10392 0.06422899
0003d0 8f 7a 40 3c 85 45 6e 3d d1 ea 6c bd 9f 24 98 3c
       0.01174797 0.058171768 -0.057841126 0.01857215
0003e0 78 ff 07 3e 46 61 37 bd e5 70 99 3d 63 04 c1 bc
       0.13281047 -0.0447705 0.07492236 -0.023561662
0003f0 07 2c 10 3e c5 aa c4 bc ef 2b 00 3d 85 ab 0c 3d
       0.14079295 -0.02400721 0.0312919 0.03434326

gru.bias_hh_l0 f4 [256]
000000 b1 fb 04 3e 7e 23 29 bd 54 34 b2 3d fa f7 c5 3d
       0.12986638 -0.041293614 0.08701387 0.096664384
000010 42 e2 cd 3d 32 aa 27 bd d9 71 28 bd 3a b2 51 bd
       0.10052921 -0.040933795 -0.0411242 -0.05119536
000020 b5 20 99 bd d1 ce 09 be 98 d1 db 3c 61 1e 86 3d
       -0.074769415 -0.134578 0.02683334 0.06548763
000030 9a 29 c0 3d 56 b5 af bd 57 06 f3 bd ea 47 e4 3d
       0.09382935 -0.08579509 -0.118664436 0.11146529
000040 4d 3a ae 3d 01 cf c7 3d 7b bd 04 3e 5b 25 fa 3d
       0.08507214 0.0975628 0.12962906 0.12214156
000050 8f ec f0 3d 39 da d8 3d 09 04 32 3e a5 fc c6 3c
       0.1176387 0.10588498 0.17384352 0.024290392
000060 80 48 8e bd aa 71 c1 bd 40 a7 03 3e 39 81 1f 3e
       -0.06947422 -0.09445508 0.1285677 0.15576638
000070 df 09 9a bc 60 5b c9 bd 6a 9b 83 bd 96 ab 2f 3d
       -0.018803535 -0.098318815 -0.06426127 0.042888246
000080 ff 0c e7 3d 6d 39 23 3c fc de 77 bd a8 b3 4d 3d
       0.11281776 0.009962422 -0.06051539 0.05022016
000090 ec b8 b2 bc b1 ab b2 bd c1 b0 10 3e 4d 65 ab 3d
       -0.021816693 -0.08724154 0.14129926 0.08368931
0000a0 bc 4a 7f bc 7d e4 fc 3c f1 00 25 3b 8e 57 05 3e
       -0.015581783 0.03087067 0.0025177563 0.1302168
0000b0 6e 82 24 bd 67 aa ac 3d d6 c6 bc 3d ca a4 24 bd
       -0.04016345 0.08430939 0.092176124 -0.040196218
0000c0 f3 5c 06 3e af 54 4e 3d 4d 2b 80 3d c7 8c e1 bc
       0.13121395 0.05037373 0.06258259 -0.027532948
0000d0 68 5c 57 3d b8 5c 06 3a 34 df 0e be d5 91 d6 bb
       0.05257836 0.00051255105 -0.13952333 -0.0065481463
0000e0 99 e3 b1 bd b6 ce 81 bc 53 01 8a bd 0c a9 97 3d
       -0.08685989 -0.015845638 -0.06738534 0.0740529
0000f0 9e 9a 83 3c d0 7e d3 3c 48 24 d9 3d 1c db bd 3d
       0.016064938 0.025817305 0.10602623 0.092703074
000100 79 38 46 bd ee e4 8d 3c 81 a9 3c bb 63 49 60 bd
       -0.0483937 0.017321076 -0.0028787556 -0.054757487
000110 ae 04 59 3d a6 bf 61 bd 45 cf d9 3c 40 80 a6 bd
       0.05298298 -0.05511441 0.026588092 -0.081299305
000120 49 6e cd 3d ae f2 32 3d 92 52 e0 3d b9 96 2a 3d
       0.10030801 0.04368847 0.10953249 0.041647647
000130 03 a3 a8 3d c6 1b f5 3d f4 a8 1d 3c 6f f5 b9 3d
       0.08234217 0.11968188 0.009622801 0.09080016
000140 44 4c 20 3d ae a1 aa 3d b4 a3 3f bb 38 7f 33 3c
       0.039135233 0.08331619 -0.0029241862 0.010955624
000150 90 30 11 ba 89 d9 aa 3a 27 a1 e9 3d bf f6 04 3e
       -0.00055385474 0.0013034801 0.114076905 0.12984751
000160 c8 a5 1b 3e b3 77 90 3d a8 51 4a bc 0c 60 63 bd
       0.1519996 0.07054081 -0.01234857 -0.05551152
000170 7b 23 b9 bd 8f 73 28 bd 4a f6 0f 3e ca f8 aa bc
       -0.090399705 -0.04112583 0.14058796 -0.020870585
000180 86 89 88 3d e1 61 54 3d a8 0e 1a bc 04 ce cd 3d
       0.066668555 0.051851157 -0.009402908 0.1004906
000190 35 96 16 bc ab b3 17 3c 3a 50 68 3d 91 ce 46 bc
       -0.009191086 0.009259145 0.056717135 -0.01213421
0001a0 58 e9 fd 3d 85 53 f1 3d 68 6c 85 3d 3b 1e f3 3d
       0.123980224 0.11783508 0.065148175 0.118710004
0001b0 9f 3e 03 3e bf e3 ca 3d b5 cd 3a 3d da 3c b6 bc
       0.12816857 0.0990672 0.045606334 -0.022245813
0001c0 ec 22 6e 3c a3 92 9f 3d 58 b4 a0 bd a0 02 00 be
       0.014534693 0.077916406 -0.07846898 -0.12501001
0001d0 ab 83 02 3e de 61 07 be b3 b8 b2 3d e4 cb 0b 3d
       0.1274554 -0.13220927 0.08726635 0.034129992
0001e0 48 3d 10 3d 1d 5f b0 3d 13 36 7b 3c 25 ff 74 3d
       0.035214692 0.086118914 0.0153327165 0.059813637
0001f0 cd c0 c1 3d 9e 1d 8a 3c 04 64 e3 bc b2 da 27 bc
       0.09460602 0.016859826 -0.027757652 -0.010245012
000200 8a 82 9a 3d ef 6f 1e bd c1 e0 ae bd ed 9b 66 bd
       0.075444296 -0.038680967 -0.08538962 -0.056301046
000210 b9 bd 05 3d 05 d1 05 bd 53 d5 a3 bc 5f 50 31 bd
       0.032651637 -0.03267004 -0.019999182 -0.04328954
000220 40 3e 5b 3d 45 6e 81 bc de 17 d8 3d b6 42 d7 bd
       0.053526163 -0.01579965 0.10551427 -0.10510771
000230 15 b0 ed bd 97 91 39 3c c0 cf dc 3c 8e 9a cd bd
       -0.116058506 0.011326215 0.026954532 -0.100392446
000240 42 82 76 3c 59 89 8b 3b 5a 8d d6 bd fd f1 75 3d
       0.015045704 0.0042583165 -0.104761794 0.06004523
000250 7b 3e e9 3d 06 c0 c0 3d 83 26 c2 bc 2c 6d 8f bd
       0.1138887 0.094116256 -0.023700004 -0.07003245
000260 aa 77 a9 3d 76 a4 a1 bd 5f 31 d1 bc 19 a0 ba bd
       0.08274777 -0.078926966 -0.025536237 -0.091125675
000270 fe 59 22 bd 90 77 19 bd 51 6f af 3d 68 34 03 3e
       -0.039636604 -0.03746754 0.08566154 0.1281296
000280 05 9d 2d 3d be 6d 49 3d 74 36 a1 bc 47 36 71 bd
       0.042386074 0.049176924 -0.019679286 -0.058889654
000290 b3 40 85 3d 0e f5 ff bc 1b d1 bf 3d 4f fc cd 3d
       0.06506481 -0.03124478 0.093660556 0.1005789
0002a0 eb 41 12 3d 55 3e eb bd 7d 3b 42 3d 08 b5 e8 3d
       0.035707396 -0.11486498 0.047420014 0.11362654
0002b0 1c 56 a5 bd 48 9c 58 3d 45 63 92 3d 85 25 26 3d
       -0.08073065 0.052883416 0.071478404 0.040563125
0002c0 cc f7 c5 3d 89 89 09 bc a9 97 5e bd 69 80 95 3d
       0.09666404 -0.008394607 -0.054343853 0.07299883
0002d0 7d ce b1 bd ce 49 bb bc 24 62 27 3d 05 b1 9b bd
       -0.08681963 -0.022862341 0.04086508 -0.07602123
0002e0 93 09 c4 3d 8b 49 02 3e ab 2a 00 3e 45 9b 5e 3c
       0.09572139 0.12723367 0.12516277 0.013586824
0002f0 e4 33 6d bd d6 a8 63 bc 32 26 70 bd 34 21 df 3c
       -0.057910815 -0.013895234 -0.058630176 0.027237512
000300 03 1d 07 3d 2d 4b 87 3c f7 ff 44 bd dc a5 8d 3d
       0.032986652 0.016515339 -0.04809567 0.06916401
000310 ae 5f bd 3d e7 42 86 3d d3 16 21 bd aa 4b d8 bd
       0.09246765 0.06555729 -0.039328407 -0.10561307
000320 65 fd 75 bd 06 fa e9 3b 0b 5b 8e 3d e6 d7 b0 bd
       -0.06005611 0.007140401 0.06950959 -0.08634929
000330 3c f2 1e 3d 8b 99 fe 3c b7 e0 02 be fe 80 17 bd
       0.03880523 0.031079074 -0.12781034 -0.03698825
000340 b6 6f 00 bd a4 83 f4 3d bb 5d 5b 3d c2 74 a0 ba
       -0.031356536 0.11939171 0.053556185 -0.0012241828
000350 0c 3a fb 3d ea 17 99 3c 85 f6 b3 3d a3 ed fa 3d
       0.12266931 0.01868816 0.08787254 0.12252357
000360 9d 6e 74 bd 36 de 75 bd cb 65 0a 3e 52 87 cf 3d
       -0.0596758 -0.06002637 0.13515393 0.10133232
000370 23 9a e4 3d 90 22 06 3e 65 cc 94 bd 60 a6 6d 3d
       0.11162212 0.13099122 -0.07265548 0.058019996
000380 0f e1 03 3e b3 9c 98 bd fa 38 05 be e0 f9 fd 3d
       0.12878822 -0.07451763 -0.13010016 0.124011755
000390 8d 88 a8 bd 06 8e 1c bd 56 02 29 bc d4 d1 b5 3d
       -0.0822917 -0.03822138 -0.010315498 0.08877912
0003a0 bb 9a ea bc 91 98 30 3b c2 5c f9 bb dd 09 a7 bd
       -0.028638234 0.0026946405 -0.0076099345 -0.08156178
0003b0 54 ce 4d 3d 94 be 20 bb 14 40 c9 bd 35 4a 99 3d
       0.050245598 -0.0024527656 -0.09826675 0.07484857
0003c0 25 d0 89 bb da de 6d bc 6a 78 ca bd 91 6e 32 bd
       -0.004205721 -0.014518464 -0.098862484 -0.043562476
0003d0 c0 7d 0a 3d 26 17 17 be 10 1f f8 bd 62 1b 92 3d
       0.03381133 -0.14754924 -0.121153 0.07134129
0003e0 d4 eb 21 bd 0f a7 f8 3c ba fc b7 bb be 63 9d 3d
       -0.039531544 0.030353097 -0.005614844 0.0768504
0003f0 66 89 a7 bd 22 83 7c 3c 81 b9 26 3d 91 46 9f 3d
       -0.081805035 0.015412124 0.040704254 0.07777131

mlp.0.weight f4 [32, 64]
000000 29 43 65 3a 9b 47 ef bd 85 f9 71 3d ff 77 fa 3d
       0.00087456644 -0.116835795 0.05907585 0.12229919
000010 e0 39 95 3c e5 55 12 bd d9 be dd bd 53 26 58 3d
       0.018216074 -0.035726447 -0.10827417 0.052770924
000020 2c b3 dc 3b af 9c f3 bd 36 53 b1 3d cd 5b 9b 3d
       0.006735226 -0.118951194 0.08658449 0.07585869
000030 35 84 dd bd 88 78 38 3d 4f a7 59 3d 26 fc 9a 3d
       -0.10816232 0.045036823 0.053138074 0.07567625
000040 bf 37 0d bd 49 4f a6 bd b7 c9 8d bd 0b e6 1e 3d
       -0.03447699 -0.08120591 -0.0692324 0.038793605
000050 ce ad 03 be b1 4a 01 be 5c f5 ba 3c a5 4e 62 bb
       -0.1285927 -0.12626149 0.022822075 -0.003453174
000060 03 f8 c6 bc c8 fb 38 bd 81 65 dc 3d 17 de f3 3c
       -0.024288183 -0.045161992 0.10761548 0.029768987
000070 c5 a1 04 bd ba ec 89 3d 2c f7 f8 3d 3c 38 d3 3d
       -0.032380838 0.06734605 0.12156519 0.1031346
000080 d5 a2 33 bd 6d 2f c0 bd 4a 00 7a bd 9d 65 4b bd
       -0.04385646 -0.09384046 -0.061035432 -0.049657453
000090 72 19 c4 3d e5 fc d4 bd fb 71 10 bd ba 27 f2 ba
       0.09575166 -0.10399798 -0.03526495 -0.0018474974
0000a0 6e e1 2c bc 8d da 87 bc f6 e2 f2 bc d2 3f c0 3c
       -0.0105517935 -0.016583705 -0.029649239 0.023467932
0000b0 f2 44 c4 bd b1 a4 11 bd cc 39 7d bd 6c 38 8f bd
       -0.09583463 -0.035557453 -0.061822698 -0.069931835
0000c0 a7 f9 eb 3d 9d ae 04 be 18 48 1b 3d 86 23 ae bc
       0.11522227 -0.12957235 0.03791055 -0.021257173
0000d0 75 fd 0a 3d 72 75 bb bd 67 a5 f8 3c 5f 76 9f 3b
       0.03393312 -0.0915326 0.030352307 0.004866406
0000e0 8f 4c 0d bd 0a 21 00 3e 4a 37 74 bd 1c 9e dc 3d
       -0.03449684 0.12512603 -0.05962304 0.107723445
0000f0 8d 60 16 3e fc 0e 44 bd 11 7c c4 3d 83 d2 d1 3c
       0.14685269 -0.047865853 0.09593976 0.025613075
000100 3f 31 a2 3d 9e 33 7c bd d8 8d 2c bd e3 9f ae 3b
       0.07919549 -0.061572663 -0.04212746 0.0053291186
000110 a1 76 b2 3d a7 b6 c0 bc 27 3e fa 3d 4a 14 96 bd
       0.08714033 -0.023524595 0.12218886 -0.073280886
000120 55 60 e6 3d 5b 0f 65 3b 04 78 d8 3d cc 50 79 3d
       0.112488426 0.003495178 0.10569766 0.06086807
000130 1f db 08 be 26 76 25 3d 2a ff be 3d b7 4d 17 3d
       -0.13364838 0.04039588 0.093260124 0.03693935
000140 3e 70 e1 bc 10 de f5 3d f4 1d 08 be 6e f7 99 3d
       -0.027519342 0.12005246 -0.13292676 0.075178966
000150 55 e7 b5 bd 35 66 ed bc 1c cd a4 3d 45 5d 11 be
       -0.08882014 -0.0289794 0.08046934 -0.14195736
000160 17 7b 0b bd 9c 2a 1b be 7e 77 46 3d 24 34 18 3c
       -0.034052934 -0.15152973 0.0484538 0.009289775
000170 13 19 15 bd 61 f7 d6 bd fd 8e 8b bc 0e fc ad bc
       -0.036400866 -0.104964025 -0.017035956 -0.021238353
000180 69 a1 c6 bc 34 65 a0 3d e4 bf c1 bd 13 f6 b8 3d
       -0.024246888 0.07831803 -0.09460428 0.0903131
000190 ac ca 30 3d 9f fc 45 3d c2 19 fe 3d 7f 5b eb 3d
       0.043162033 0.04833662 0.12407257 0.11492061
0001a0 d3 25 10 3e d4 d7 c3 bd 06 88 a7 3c da f9 ee 3d
       0.14076929 -0.0956265 0.020450603 0.11668749
0001b0 a3 e8 37 3d 61 c5 18 be 32 77 b9 3d a4 88 f7 bd
       0.044899594 -0.14919044 0.09055938 -0.12086609
0001c0 91 8a 85 ba dd 67 1b be ef 1b b1 3d d5 a6 a8 bd
       -0.0010188391 -0.1517634 0.08647906 -0.08234946
0001d0 b9 39 80 bd c3 15 b6 3d 94 ad 96 bd 07 f7 86 bc
       -0.0626101 0.088908695 -0.07357326 -0.016475214
0001e0 c1 e0 e3 3c 5e 4f eb 3d 8a be 6c bd 25 a9 9c 3d
       0.027817132 0.114897475 -0.0577989 0.07649449
0001f0 06 0a 4c bc b9 f6 16 be 56 1b 37 bc ee c7 18 3e
       -0.012453562 -0.14742555 -0.011175951 0.14920017
000200 aa c8 da 3d 63 3e f1 3d 59 34 97 bc 50 c5 e6 3d
       0.10682805 0.117794774 -0.018457578 0.11268103
000210 ef c2 5b 3c f4 f9 6f bd 8c 6c fd 3c 35 8c 53 bd
       0.013413175 -0.058587983 0.030935548 -0.051647384
000220 ba 31 ec 3b 49 9a 8a 3d 80 a7 bb 3d f8 4c 25 3d
       0.0072080763 0.06767709 0.091628075 0.040356606
000230 50 db ec bd 2a f6 89 3c 62 90 e1 3c f3 04 31 3d
       -0.11565268 0.016841013 0.027534667 0.04321761
000240 07 f0 88 3d 9b 35 c4 bd f0 6e db bd 39 07 b4 bd
       0.066864066 -0.09580537 -0.10714519 -0.0879044
000250 67 e7 d2 3d 39 5e 6b bd 31 a9 fe bd 2f 70 a3 bc
       0.10298043 -0.057462905 -0.124346144 -0.019950954
000260 c4 9b 0e 3c 86 b2 d3 bd c2 0e 76 3d c9 47 f0 3d
       0.00870413 -0.10336785 0.060072668 0.11732442
000270 c2 11 c5 3d 82 5b 73 bd 1c db 93 3d 1d 05 40 bd
       0.09622528 -0.05941344 0.07219526 -0.046879876
000280 16 de 97 bd 66 ac 65 3d a0 46 34 3d 20 0b 53 3d
       -0.074154064 0.056072615 0.044012666 0.05152428
000290 cc ba 05 bd ba 05 7a 3d ef c9 83 3c c7 f5 59 bd
       -0.032648847 0.061040618 0.0160875 -0.053212907
0002a0 7c 7d 9b bd a2 87 0b 3b 82 a5 a1 bd 54 b9 2d 3d
       -0.075922936 0.002129056 -0.07892896 0.04241307
0002b0 00 d6 a0 3c dd 83 13 3c 02 66 99 bd 0d 0a cd 3d
       0.019633293 0.009003607 -0.074901596 0.10011683
0002c0 73 cb 65 bd 41 75 d2 3d f3 d7 6f bc d1 c4 e3 3d
       -0.056102227 0.10276271 -0.014638889 0.11121524
0002d0 b9 0d d2 bd 2a e7 a5 3c a2 c4 60 3d 8e 4b 8c bd
       -0.10256524 0.02025183 0.054875024 -0.068503484
0002e0 84 28 55 bd e3 be 88 3d 05 2b c4 3c 5a 68 30 bd
       -0.05204059 0.06677034 0.023946295 -0.043068267
0002f0 f6 40 d8 3c 48 2c f4 3d 00 05 8a 3c 12 8f 49 bd
       0.026398163 0.119225085 0.016848087 -0.049208708
000300 a5 18 c1 3d fa 30 39 bd e3 fc a2 bd f8 4c c6 3b
       0.09428529 -0.045212723 -0.079583906 0.006051656
000310 1d 59 8a bc ed c7 8e 3c 5d a3 c0 bd 38 d4 b0 3d
       -0.016888196 0.017429316 -0.09406159 0.086342275
000320 1c d7 43 bb 28 44 f1 bd 77 58 8f 3d 33 d9 de 3d
       -0.0029882854 -0.11780578 0.06999295 0.10881271
000330 c5 ff 0b 3e 1b f7 92 bb 0c 27 91 3d b2 ae 29 bd
       0.13671787 -0.0044850237 0.07087526 -0.041426368
000340 ed 86 99 bd a8 1b 38 3d 57 65 7a 3d 5b ed 21 bd
       -0.07496438 0.04494825 0.0611318 -0.039533
000350 28 5e 6d bc 40 4c ce bd a2 43 81 bc ec 06 0d 3e
       -0.014487781 -0.10073137 -0.01577932 0.13772172
000360 9c 7b 8d 3d bf 24 45 3d 74 fc 89 3d 32 79 ba bd
       0.06908342 0.048130747 0.06737605 -0.091051474
000370 d2 73 fe bd a3 c4 cb bd cd 01 64 3d c0 8b 75 3d
       -0.12424435 -0.09949615 0.05566578 0.05994773
000380 4c 98 48 bd 52 10 47 3d 79 10 19 3d 3b 84 f9 bb
       -0.048973367 0.04859955 0.037369225 -0.00761464
000390 54 e6 da 3d f0 4b e3 bd 08 fa cc bb dc b1 9e bd
       0.10688463 -0.11098468 -0.006255392 -0.07748768
0003a0 51 8a 0a be be 17 c3 bc db 7a 86 3d d6 30 05 3d
       -0.13529326 -0.023815032 0.065664016 0.032517277
0003b0 e9 6b 82 3d df ac c0 3d aa b0 9d 3d e0 76 99 3c
       0.063682385 0.094079725 0.076997116 0.018733442
0003c0 9a 3e 8e bd 6b 84 a4 bd 47 88 6b 3d 0c a8 ac 3d
       -0.06945534 -0.08033069 0.05750301 0.0843049
0003d0 23 ac b5 bd 10 c4 cf 3d df 2a 1a 3d b1 86 27 3d
       -0.08870723 0.10144818 0.03763854 0.040899936
0003e0 f9 b3 ff bd 87 69 e8 bd e9 dc 07 3d 9c 30 d9 bd
       -0.12485499 -0.11348253 0.03316966 -0.10604975
0003f0 96 71 bc bd 51 23 87 3d cf 3b ef 3d 5c ed 2d 3d
       -0.09201352 0.06598533 0.116813295 0.04246269

mlp.0.bias f4 [32]
000000 0a 11 62 bd 28 2a 38 bc 21 21 95 bd 71 8a ad 3c
       -0.05519203 -0.01124052 -0.072817095 0.021184178
000010 33 72 bb bd 8f 89 1f bd 62 18 07 3d b7 92 d6 bd
       -0.09152641 -0.038949545 0.032982238 -0.104772024
000020 ba e0 cd bd c7 a6 03 be 70 bd 07 3d c5 58 d8 3d
       -0.10052629 -0.1285659 0.033139646 0.105638064
000030 ca 9c 40 3d 74 f5 ab 3c f1 1d 1a be a3 e4 8d bd
       0.047024526 0.020991065 -0.15050484 -0.069283746
000040 48 89 18 bd 2f 50 de bd 0a 18 ba 3d 7c d0 8f 3d
       -0.037240297 -0.108551376 0.09086616 0.07022187
000050 da f8 20 bd a2 e5 c2 3d 86 5c 8a bd ab 45 bb 3d
       -0.039299823 0.09516455 -0.06755929 0.091441475
000060 65 5e aa 3d 22 d4 10 bd c5 e5 64 bc 43 c3 bf 3d
       0.083187856 -0.035358556 -0.013970797 0.09363415
000070 9b df ca bb de e5 7a bd 11 9a 8d bd 18 93 f7 bc
       -0.0061912066 -0.061254375 -0.069141515 -0.030221507

mlp.2.weight f4 [16, 32]
000000 29 7f d1 3c b9 8e fc 3d b8 f9 40 be 2a c6 19 bd
       0.02557333 0.1233191 -0.1884526 -0.0375425
000010 e0 b7 d0 bd a3 73 41 3d 8e db 05 3e 0c 5e 4c bd
       -0.101913214 0.04722942 0.13072035 -0.049894378
000020 ca 29 de 3d 37 25 43 be 58 f1 10 3e fd a1 63 bd
       0.108478144 -0.19057165 0.14154565 -0.055574406
000030 13 ac 52 3e d0 cc a3 3c 28 63 15 be 4e c7 3f 3c
       0.20573454 0.019995123 -0.14588606 0.011705233
000040 c3 2d 7c bd 3d 78 b7 3d 98 f4 05 be 97 28 22 3d
       -0.06156708 0.089584805 -0.13081586 0.03958949
000050 25 1f 16 be 5d ab e5 3d 18 5d 04 3e 83 e4 c4 bc
       -0.14660318 0.112143256 0.12926137 -0.024034744
000060 fe 8c 33 3e 53 fa 69 3d 47 f4 36 bd 6e 6f 03 be
       0.17534253 0.057123493 -0.044666555 -0.12835476
000070 2d da 16 3c 60 04 43 be 5b aa 51 3d f1 a9 ca 3d
       0.009207291 -0.19044638 0.051187854 0.09895695
000080 65 df 91 bd 38 70 d2 3d ba ae 31 bd 23 45 84 3d
       -0.07122687 0.1027531 -0.043379523 0.06458499
000090 0e 5b 16 be 34 7e d3 bd d5 06 2c bd a2 31 25 3e
       -0.14683172 -0.10326806 -0.041998703 0.16132215
0000a0 19 ce 0c be 87 ec 64 3d 41 3c 20 3e f8 19 4f bc
       -0.13750495 0.055889633 0.15647985 -0.012640469
0000b0 41 dd ff 3d 9c c0 49 be 15 5f f5 3d 60 0c f9 bd
       0.12493373 -0.19702381 0.11981026 -0.121605635
0000c0 b0 dc 1e 3e 3b a5 f0 3c 23 44 48 3d 53 4d b1 bb
       0.15513873 0.029375663 0.048893105 -0.005410829
0000d0 44 db f8 3d c7 64 01 be 8f ee 64 bd 5e c3 97 bd
       0.121511966 -0.126361 -0.05589157 -0.0741031
0000e0 80 a0 38 3e bf 88 0e be 47 f7 22 3c 94 e1 30 3e
       0.18029976 -0.13919352 0.009946651 0.17273551
0000f0 6d e1 64 ba 2e df 3f be d8 57 8b 3d 9c 1b 28 be
       -0.0008731101 -0.1873748 0.06803864 -0.16416782
000100 cc 98 41 3d ec 5c 59 3c c1 b0 b5 bd 66 5c 74 3d
       0.04726486 0.013266783 -0.08871604 0.05965843
000110 60 f6 09 be 29 f9 b3 3d 83 06 29 bd 81 3c 1e 3e
       -0.13472891 0.08787758 -0.041265976 0.15452768
000120 de d6 98 bd a5 58 79 bd 92 48 c3 3d 80 c6 f1 bd
       -0.07462858 -0.060875554 0.09535326 -0.11805439
000130 48 13 0d bd da b7 cb 3d 0a da 33 bd 6d 41 35 3e
       -0.034442216 0.09947176 -0.04390911 0.17700739
000140 e3 0c e4 3d 1a 36 3b bd 7d d7 3b be ba bd 0a 3d
       0.111352704 -0.045705892 -0.18343921 0.033872344
000150 47 f0 6d bc 99 e7 4c be b4 83 1b 3e df 2a 65 bc
       -0.014522619 -0.20010222 0.1518696 -0.013987272
000160 d2 8d 26 be 40 57 1a be 6e 27 99 3d 2b b3 5c bb
       -0.16265038 -0.15072346 0.07478224 -0.0033676128
000170 2d d1 d9 bd d7 74 a8 bb b8 c4 28 be e4 21 1e be
       -0.106356 -0.0051408815 -0.16481292 -0.15442616
000180 45 7a 9f 3d da 8e f5 3d bc 04 b4 bd d6 b4 1c 3e
       0.07786993 0.119901374 -0.087899655 0.15303358
000190 40 c1 9d 3c 1a 85 18 3e a0 96 9e bd ac 64 db bb
       0.019257188 0.14894524 -0.07743573 -0.0066953506
0001a0 a5 44 86 3d 41 ca bd bd e0 af 39 3e 73 84 f5 bd
       0.06556062 -0.092670925 0.18133497 -0.11988153
0001b0 ac a3 ec 3c 26 05 93 3d c9 33 65 be 2f 2d 3c 3e
       0.028886639 0.07178716 -0.22383036 0.18376611
0001c0 10 a8 29 be 85 e7 94 bd 97 66 ac bd 88 e5 e0 bd
       -0.16568017 -0.07270721 -0.08418005 -0.109812796
0001d0 ba 0e 14 be ec 7a 52 3e e0 3b c9 bd 55 02 92 bd
       -0.14458743 0.20554703 -0.098258734 -0.07129351
0001e0 f8 f1 7d bd 7a 2a 0b 3e 86 b2 7b bd 41 42 bd 3d
       -0.061998338 0.13590422 -0.06144955 0.092411526
0001f0 82 5e 37 be 42 a5 a6 3d 0a 86 aa bd 1e 23 8f 3d
       -0.17907146 0.08136989 -0.08326347 0.0698912
000200 de de 34 bd 59 0f 52 bd 64 2e 16 be e5 39 82 3b
       -0.044157855 -0.051284168 -0.14666134 0.0039741867
000210 af de 2c bc 04 08 1a 3d 3e 53 e7 3d 66 f4 3c bd
       -0.010551139 0.0376053 0.11295174 -0.046131514
000220 cd 82 e1 3d d2 8a 3a 3e ef bc e6 3d e3 50 11 3e
       0.110112764 0.18217018 0.11266505 0.14191012
000230 5b 88 4a be 27 bc f1 bd b2 cc 93 3d b3 ba 1c be
       -0.19778578 -0.11803465 0.07216777 -0.15305595
000240 cd a2 0f be 56 eb 86 3d cd 8a ae bd b6 31 e8 bd
       -0.14026947 0.065878555 -0.08522568 -0.113376066
000250 37 2b 1c 3d fa 1f 07 3d ea 61 12 be f8 68 98 bc
       0.03812715 0.03298948 -0.14295164 -0.01860474
000260 db 03 15 bc a8 7f e0 bd 2b 62 00 be 2d 2b 24 be
       -0.0090951575 -0.109618485 -0.12537448 -0.16032095
000270 3c 15 2c 3e f0 ca 54 3d de 06 55 bd ec e3 10 bd
       0.16804975 0.05195135 -0.052008502 -0.035373613
000280 38 40 16 bd 7d df dc 3d dc 9b 04 3e 8f 26 50 3d
       -0.036682338 0.107848145 0.1295008 0.050818022
000290 f7 71 1e 3e 4e e6 07 3e 2b 27 94 bd 36 2b 38 be
       0.15473162 0.13271448 -0.07234033 -0.17985234
0002a0 7c 4e 08 bd 36 96 3f be 39 e3 af 3d 1f 09 67 bd
       -0.033277974 -0.18709645 0.08588261 -0.056405183
0002b0 d3 82 8f 3d 39 d2 84 bd 0a ba 10 bd 18 d2 31 bd
       0.070073746 -0.06485409 -0.03533367 -0.04341325
0002c0 0d 89 c4 bc 46 7a 72 bd 6a 07 dd bd e3 f8 c8 bd
       -0.023991132 -0.05919864 -0.1079243 -0.098130964
0002d0 6e a3 a3 bd f1 6e b2 3d 38 7d 73 bc 5c 3a 96 3d
       -0.07990156 0.08712567 -0.014861397 0.0733535
0002e0 79 1d 4a bc 71 d7 46 bd e3 30 8c bd 03 d4 a3 3d
       -0.012336128 -0.048545305 -0.06845262 0.079994224
0002f0 76 06 be bc fc 84 49 3d 7e be 0c 3e 35 f8 b6 3d
       -0.02319644 0.04919909 0.13744542 0.089340605
000300 c6 49 41 3d b8 9e 06 be 5d 62 ec bd b1 22 2a 3d
       0.047189496 -0.13146484 -0.11542199 0.04153699
000310 b4 41 85 3c 7d e5 0a be 87 c4 cd 3d d4 18 16 be
       0.016266681 -0.13564105 0.1004725 -0.14657909
000320 57 6d 1a be 77 86 04 3e 64 4d 49 3e 84 ea 8d bd
       -0.15080772 0.1294192 0.19658428 -0.06929496
000330 9f 57 1e 3d 39 b7 f4 bd 95 90 19 be 0b f2 31 be
       0.03865778 -0.119490094 -0.1499656 -0.17377488
000340 0d 0d 0c bd 9c 7e 9b 3d 0f 5f 93 3c 07 68 07 3d
       -0.034192134 0.07592508 0.017989663 0.033058193
000350 6e 83 2c be b2 9a ab bd d4 14 ac bd c0 70 80 bd
       -0.16847011 -0.08379115 -0.0840241 -0.06271505
000360 65 28 69 bc 93 e0 ca 3d 72 f6 1f be 0c cf 31 3d
       -0.014230822 0.099061154 -0.15621355 0.043410346
000370 cb 91 19 be ed 15 05 3d 8d d4 23 3d 6f 1d 47 3d
       -0.14997022 0.032491613 0.039997626 0.048612054
000380 6b b7 16 be 2d 12 5c bd 17 ca 02 bd 52 5a d4 bd
       -0.14718406 -0.05372827 -0.03193101 -0.1036879
000390 36 3d e5 bd 52 dc 8c bd d0 03 cb 3d f8 d5 e1 3d
       -0.11193316 -0.0687796 0.099128366 0.110271394
0003a0 c7 ce fb bd d5 8d 0f be af 19 31 3e 88 c5 06 bd
       -0.12295299 -0.14018948 0.17294954 -0.032903224
0003b0 5c 6f 09 be 1c eb cb 3d d3 7f 36 be 0a 86 92 3d
       -0.13421386 0.09956953 -0.17822199 0.07154472
0003c0 04 16 14 bc 81 f4 6b bd bb 15 a6 bd 63 b5 ea 3d
       -0.009038452 -0.057606224 -0.081096135 0.11460378
0003d0 77 9a 8b 3d e5 4e 86 3b 77 73 ca 3d c0 6a 95 3d
       0.06816571 0.0040987604 0.098853044 0.072957516
0003e0 95 ce 2e 3e 04 e8 29 3d 4e bf 19 be 08 88 7b 3d
       0.17070992 0.041481033 -0.15014383 0.061409026
0003f0 7d 91 a8 bd e4 d2 a9 3d 47 c5 b9 bd 30 ae 8a 3d
       -0.08230875 0.08292177 -0.09070831 0.06771505

mlp.2.bias f4 [16]
000000 13 a9 b3 3d 53 f5 cc 3d ab b6 20 3c 76 56 e6 bd
       0.08772483 0.100077294 0.009809176 -0.1124696
000010 13 3b ec bb d0 1c f1 3d 57 fc a7 bb 09 21 d4 bd
       -0.0072091906 0.11773074 -0.005126517 -0.103578635
000020 d5 53 13 3d 59 d3 14 be fb ce d7 bd be b2 ba 3b
       0.03596862 -0.14533748 -0.10537525 0.0056975773
000030 bf cb 09 be ee 36 06 bd 61 9c dd 3c 3c 48 f4 3d
       -0.13456629 -0.03276723 0.027052106 0.1192784

mlp.4.weight f4 [1, 16]
000000 85 97 36 3e 99 87 94 3d 83 a8 34 bd e1 f7 21 3d
       0.17831238 0.07252426 -0.044106018 0.039543036
000010 52 22 a1 bd ae 96 50 3d ac 17 f2 3d f4 87 4b 3e
       -0.07867874 0.05092495 0.11820921 0.19876081
000020 5b 29 5a be 04 7a 2d 3e ee e5 01 be 71 50 81 bd
       -0.21304838 0.16941077 -0.12685367 -0.06314171
000030 a0 9e 4d 3e 79 ad 03 be 17 a0 45 3e 07 d8 4c 3e
       0.20080042 -0.12859143 0.1929935 0.20004283
